project2_continuous_control/checkpoint_actor.pth (torch_old, 541411 bytes, 6 tensors)

fc1.weight f4 [400, 33]
-0.18284656 0.48014584 -0.36407372 0.06061759 0.0018446747 -0.34805706 -0.14157215 0.20631917
-0.014715989 -0.08446931 0.07277587 -0.05479251 -0.068895034 0.49312925 -0.47502777 0.4700235
-0.32158622 0.119829185 0.18686979 0.18980817 0.076904625 0.16866077 -0.07303162 0.18367341
-0.10789768 0.3149801 -0.04145039 0.5648378 0.37104896 0.049657617 -0.56850636 -0.028602464
0.65930814 -1.1023667 0.36846513 0.3578227 0.07037628 -0.4381717 -0.25849652 -0.024874056
-0.026367534 -0.107383214 -0.10108686 -0.12532964 -0.1641091 0.08875849 0.3242866 -0.10451001
-0.3307842 0.018501898 0.078843206 -0.055310052 0.15747581 -0.15527028 -0.113310084 0.199799
0.33225295 -0.02179949 -0.16113338 0.100054756 0.19489321 -0.07798328 -0.041183244 -0.15387672
-0.011414509 -0.38377318 0.51107633 -0.33397305 -0.28305945 -0.059342913 0.24360697 -0.39111236
0.07899266 0.25115266 0.038088717 -0.3324356 -0.19851677 -0.3223061 -0.100457326 -0.4500493
0.315444 -0.09576844 0.041528765 0.043978393 -0.15752274 0.123822734 -0.10026455 0.112973355
0.15488315 -0.26195303 -0.11003048 -0.1190675 -0.10087407 -0.0613354 0.36777487 -0.034138605
-0.00015326323 0.04606835 0.58450586 0.49911603 -0.45192063 -0.3318785 -0.15024316 -0.18238442
-0.04525466 0.10173174 0.016683944 -0.0944785 0.5211336 0.4879554 -0.15806302 -0.15559572
-0.077858135 0.51475585 0.4925244 -0.2708712 -0.28435594 -0.32520664 -0.02367655 -0.049560968
0.31574607 0.057727415 -0.04986157 0.111902446 0.14342292 0.15015405 -0.18073276 0.023493562
-5.0626695e-05 0.141891 -0.000518851 0.9527238 -0.40110096 0.6342588 0.18538971 -0.009836919
-0.1029637 0.12553592 -0.030320764 -0.26021388 0.1537374 -0.4472991 -0.2588765 0.24239016
0.022454727 -0.26275826 0.7177912 0.17912526 0.3729395 -0.120245226 0.040585432 -0.23202452
0.07562345 -0.23987001 -0.041905947 0.22660531 0.45245424 0.15105866 0.3014244 0.15559965
-0.35740364 -0.0379647 -0.18104006 -0.009385206 -1.0311872 0.6817869 0.27188045 0.3668029
-0.3082843 0.18743597 0.3716522 -0.056959324 -0.0313256 -0.14546749 0.50319636 0.35834616
0.13310984 -0.10006917 -0.0005967986 -0.50332814 0.16238786 0.23203291 0.17286746 -0.13867226
-0.012322373 -0.028821697 -0.12337792 -0.38571066 0.10846512 -0.009835672 -0.021629937 -0.10266673
0.44278282 -0.16502206 0.046912704 -0.3970479 0.0009202771 -0.87075967 0.12966423 0.23274778
0.85353357 -0.098911405 -0.09827948 -0.055900075 -0.08016851 -0.28906044 0.042796798 0.43610722
0.199835 0.107985035 0.5526585 0.086391754 0.16456904 -0.30064338 0.36484307 0.42832306
0.1780201 -0.14899966 0.006706335 0.113856286 0.19733195 0.21179657 -0.18096878 0.26327434
-0.24466968 0.17496213 0.004582802 -0.042831894 -0.19584742 0.01055352 -1.1315506 -0.25654015
-0.20498498 -0.83731824 2.7518363e-05 -0.06973977 -0.16259156 -0.27883318 -0.16716199 -0.12839831
-0.11661115 -0.062364943 -0.23124051 0.04533969 0.27630037 0.010386674 0.60879284 0.15844361
0.08642454 0.10284121 -0.30351382 0.0104200365 -0.031230783 0.077607065 0.06935658 0.06313259
00000000: 213c 3bbe add5 f53e df67 babe 264a 783d
00000010: 03c9 f13a 8934 b2be 4af8 10be 5545 533e
00000020: 551b 71bc 3ffe acbd 840b 953d 1c6e 60bd
00000030: d718 8dbd 707b fc3e d736 f3be eca6 f03e
00000040: f3a6 a4be 0169 f53d cb5a 3f3e 135d 423e
00000050: 2c80 9d3d 69b5 2c3e 9a91 95bd e214 3c3e
00000060: 75f9 dcbd 1245 a13e e2c7 29bd 3699 103f
00000070: 21fa bd3e c965 4b3d a289 11bf b74f eabc
00000080: 6bc8 283f 5a1a 8dbf 76a7 bc3e 8934 b73e
00000090: 7021 903d 0b58 e0be a859 84be adc4 cbbc
000000a0: ba00 d8bc bbeb dbbd a106 cfbd 6a56 00be
000000b0: 370c 28be 03c7 b53d e508 a63e 5809 d6bd
000000c0: 8c5c a9be 4b91 973c 8c78 a13d cb8c 62bd
000000d0: 5741 213e 2cff 1ebe 1e0f e8bd 1c98 4c3e
000000e0: 0f1d aa3e d894 b2bc 2600 25be 82e9 cc3d
000000f0: 1692 473e b3b5 9fbd c3af 28bd dc91 1dbe
00000100: ec03 3bbc eb7d c4be e6d5 023f 84fe aabe
00000110: 2bed 90be 8e11 73bd 1b74 793e e13f c8be
00000120: e7c6 a13d 1597 803e ea02 1c3d 0035 aabe
00000130: fb47 4bbe 4e05 a5be 92bc cdbd dd6c e6be
00000140: e081 a13e 3e22 c4bd 111a 2a3d b022 343d
00000150: a44d 21be c696 fd3d 8057 cdbd 935e e73d
00000160: b099 1e3e b51e 86be a957 e1bd a9d9 f3bd
00000170: 1097 cebd d43a 7bbd fd4c bc3e ecd4 0bbd
00000180: 49b5 20b9 2bb2 3c3d 2da2 153f 238c ff3e
00000190: 2462 e7be fbeb a9be 58d9 19be fbc2 3abe
000001a0: f35c 39bd bb58 d03d c4ac 883c f27d c1bd
000001b0: 0369 053f 4ad5 f93e 46db 21be 7c54 1fbe
000001c0: 1674 9fbd 0ac7 033f 282c fc3e a1af 8abe
000001d0: 1a97 91be 7c81 a6be 53f5 c1bc 7100 4bbd
000001e0: 78a9 a13e 9573 6c3d a53b 4cbd 1c2d e53d
000001f0: 75dd 123e fcc1 193e 0212 39be 9275 c03c
00000200: 0058 54b8 e04b 113e 8003 08ba b5e5 733f
00000210: 1b5d cdbe c95e 223f cdd6 3d3e 072b 21bc
00000220: a2de d2bd 7d8c 003e 4063 f8bc c13a 85be
00000230: 566d 1d3e 6304 e5be 768b 84be 2035 783e
00000240: faf2 b73c 4088 86be 2ac1 373f 9d6c 373e
00000250: edf1 be3e 2143 f6bd e93c 263d d697 6dbe
00000260: 78e0 9a3d 7ca0 75be 92a5 2bbd 390b 683e
00000270: 15a8 e73e 1faf 1a3e 4d54 9a3e 8455 1f3e
00000280: 9cfd b6be e080 1bbd 9162 39be 68c4 19bc
00000290: f1fd 83bf 9689 2e3f ea33 8b3e 97cd bb3e
000002a0: 71d7 9dbe 37ef 3f3e 3249 be3e 2e4e 69bd
000002b0: 464f 00bd 6ef5 14be 7ad1 003f 2679 b73e
000002c0: f24d 083e 11f1 ccbd 7a72 1cba 1dda 00bf
000002d0: 0149 263e 099a 6d3e 2b04 313e 1a00 0ebe
000002e0: c7e3 49bc 7b1b ecbc 90ad fcbd de7b c5be
000002f0: f622 de3d cc25 21bc 4431 b1bc ef42 d2bd
00000300: 6eb4 e23e 8bfb 28be 8927 403d dd49 cbbe
00000310: c03e 713a 1bea 5ebf b3c6 043e 6f55 6e3e
00000320: 2d81 5a3f 1092 cabd c146 c9bd 7af7 64bd
00000330: 632f a4bd bbff 93be b24b 2f3d 7249 df3e
00000340: 8ca1 4c3e 4227 dd3d 077b 0d3f 29ee b03d
00000350: c984 283e eeed 99be b6cc ba3e 294d db3e
00000360: e74a 363e 5e93 18be d1c0 db3b 7c2d e93d
00000370: 6311 4a3e 33e1 583e e14f 39be e5cb 863e
00000380: b08a 7abe 4629 333e 542b 963b 7f70 2fbd
00000390: 3a8c 48be ace8 2c3c a6d6 90bf 3b59 83be
000003a0: 95e7 51be 7d5a 56bf 3cd7 e637 b9d3 8ebd
000003b0: 677e 26be 39c3 8ebe 832c 2bbe d97a 03be
000003c0: d4d1 eebd 6272 7fbd 50ca 6cbe 1cb6 393d
000003d0: 3e77 8d3e de2c 2a3c d9d9 1b3f 0b3f 223e
000003e0: 59ff b03d 6a9e d23d 2a66 9bbe cdb8 2a3c
000003f0: b3d7 ffbc 74f0 9e3d d30a 8e3d a94b 813d

fc1.bias f4 [400]
-0.66383106 -0.24547939 0.19649711 0.18442787 -0.29028898 -0.57622176 -0.30065948 -0.1632777
-0.4180802 -0.46134698 -0.25144863 -0.29402044 -0.13805355 -0.20424761 -0.25087073 -0.44578582
-0.4256405 -0.37814152 -0.6072318 -0.30129603 -0.73333526 -0.66391593 -0.082529224 -0.5779649
-0.30320022 -0.3368511 -0.32121372 -0.17501022 -0.19565085 -0.446148 -0.24178895 0.036634058
0.10814317 -0.6647743 -0.23818083 -0.23434941 -0.13023575 0.0030318836 -0.39869544 -0.63498336
-0.30095857 -0.10690635 0.026031867 -0.078942284 -0.11738372 -0.5600902 -0.36198547 0.14137052
-0.4023671 -0.44565263 -0.11588458 -0.297684 -0.20300034 -0.075483285 -0.3239923 -0.27756748
-0.3517374 -0.6989376 -0.64973354 -0.028665777 -0.26132888 -0.3870909 -0.32666272 -0.1997055
-0.5009227 -0.3577169 -0.43562236 -0.20158596 -0.44979528 -0.1981776 -0.30419385 -0.45728415
-0.09708422 -0.12180521 -0.65537727 -0.3404636 -0.06243096 -0.22555846 -0.33398312 -0.7886046
0.23621188 -0.026955351 -0.45057037 -0.07672092 -0.40028146 0.09641372 -0.32470763 -0.22368348
-0.32491228 -0.03296474 -0.38007534 -0.22874269 -0.3098507 -0.027618002 -0.3741483 -0.24996598
-0.066013135 -0.3283547 -0.2651784 -0.21220084 -0.5008955 -0.4997185 -0.51983494 -0.45425716
-0.23106694 -0.52947867 -0.5308157 -0.15217529 -0.5849309 0.030046657 0.15183374 -0.25979504
-0.76773024 -0.056569807 -0.13963628 -0.23420933 -0.46375006 -0.6589186 -0.46921408 -0.13882847
-0.51996726 -0.6084401 -0.49468228 -0.25251856 -0.21987541 -0.4029276 -0.4866956 -0.45106387
-0.41905326 -0.031779245 -0.46511242 -0.22055209 -0.20306338 -0.5549952 -0.2329588 -0.034539077
-0.26689464 -0.10996373 -0.49883673 0.1463468 -0.026477663 -0.3211727 -0.15306675 0.04908016
-0.82472426 -0.31528348 -0.32017142 -0.39119163 -0.03146969 -0.23260637 -0.56826097 -0.460894
-0.3462578 -0.46963078 -0.14575674 -0.68848795 -0.09433905 -0.4585592 -0.58898187 -0.4093748
-0.35714 -0.46306893 -0.358114 -0.744934 -0.17358992 -0.33024272 -0.28005344 0.24839072
-0.4984468 -0.07998803 0.2091756 -0.5051121 -0.60077906 -0.18307303 -0.3862422 -0.10702823
-0.15979691 -0.3540213 -0.14168581 -0.41723573 -0.05788546 -0.29799736 -0.5993475 -0.41103992
-0.42408636 -0.26632753 -0.51326203 -0.15290353 -0.06827167 -0.117076516 -0.24246815 -0.21543385
-0.42602748 -0.36514652 -0.4003916 -0.4800438 -0.5454222 0.06336357 -0.42785347 -0.5779202
-0.13437974 -0.31401098 -0.40300706 -0.12692426 -0.3390209 0.07149927 -0.5551247 -0.52147675
-0.3608538 -0.55541 -0.11110382 -0.083028406 -0.016964128 -0.61511445 0.20819145 -0.49368492
-0.45872718 -0.17136781 -0.23502892 0.27838284 -0.1744508 -0.28376326 -0.5109456 -0.6209064
0.12964816 0.02715945 -0.3785507 -0.26696208 -0.18756403 -0.34251422 -0.15260457 -0.5513246
-0.19810574 -0.3894247 -0.5504293 -0.12246205 -0.6548357 -0.5677438 -0.16239099 -0.18691859
0.02946622 -0.59690475 -0.48757124 -0.03987253 -0.16518462 -0.53492564 -0.029905327 0.17486654
-0.705715 -0.25336263 -0.49702072 -0.51292354 -0.52534086 -0.2378527 0.2670503 -0.17198671
00000000: d5f0 29bf f35e 7bbe 8a36 493e a9da 3c3e
00000010: c2a0 94be 4583 13bf 0af0 99be 4532 27be
00000020: 9c0e d6be ac35 ecbe e0bd 80be d989 96be
00000030: e95d 0dbe 4926 51be 2172 80be 0a3e e4be
00000040: 8ded d9be c49b c1be 8b73 1bbf 7943 9abe
00000050: dcbb 3bbf 65f6 29bf 1505 a9bd 82f5 13bf
00000060: 0f3d 9bbe bf77 acbe 2076 a4be e135 33be
00000070: b258 48be 836d e4be 8697 77be 980d 163d
00000080: 2b7a dd3d a62e 2abf ade5 73be 4bf9 6fbe
00000090: 855c 05be 91b2 463b cf21 ccbe 458e 22bf
000000a0: 3e17 9abe b7f1 dabd c840 d53c 7eac a1bd
000000b0: e066 f0bd 1262 0fbf 2956 b9be 6fc3 103e
000000c0: 0f03 cebe 952c e4be e554 edbd 0a6a 98be
000000d0: 52df 4fbe fb96 9abd 52e2 a5be 531d 8ebe
000000e0: ed16 b4be 93ed 32bf f054 26bf 7ed4 eabc
000000f0: e6cc 85be c730 c6be 5640 a7be 997f 4cbe
00000100: 783c 00bf ab26 b7be e509 dfbe 8d6c 4ebe
00000110: 914b e6be 12ef 4abe 4cbf 9bbe 2621 eabe
00000120: 17d4 c6bd 0375 f9bd cec6 27bf 3f51 aebe
00000130: 9bb7 7fbd ccf8 66be d6ff aabe fee1 49bf
00000140: 87e1 713e 78d1 dcbc 29b1 e6be dc1f 9dbd
00000150: b1f1 ccbe 8e74 c53d 1440 a6be 480d 65be
00000160: e75a a6be 0906 07bd 3c99 c2be 863b 6abe
00000170: c0a4 9ebe 263f e2bc 5e90 bfbe 15f7 7fbe
00000180: e531 87bd 1b1e a8be 77c5 87be 2d4b 59be
00000190: b03a 00bf 1adb ffbe e713 05bf 6594 e8be
000001a0: d09c 6cbe ea8b 07bf 8ae3 07bf d7d3 1bbe
000001b0: 08be 15bf 6824 f63c 4e7a 1b3e db03 85be
000001c0: f889 44bf beb5 67bd d0fc 0ebe 92d4 6fbe
000001d0: a670 edbe e4ae 28bf d43c f0be 0d29 0ebe
000001e0: 931c 05bf bbc2 1bbf ff46 fdbe 1d4a 81be
000001f0: 0527 61be 874c cebe 2a30 f9be d8f1 e6be
00000200: 268e d6be f42a 02bd 3723 eebe 68d8 61be
00000210: d9ef 4fbe 2a14 0ebf c08c 6ebe d978 0dbd
00000220: 6aa6 88be aa34 e1bd 8767 ffbe efdb 153e
00000230: afe7 d8bc c070 a4be 88bd 1cbe 4708 493d
00000240: 2121 53bf d66c a1be 82ed a3be 454a c8be
00000250: 5de6 00bd 5d30 6ebe 8d79 11bf 4cfa ebbe
00000260: b448 b1be 7273 f0be 4141 15be bf40 30bf
00000270: d534 c1bd 45c8 eabe 84c7 16bf 9399 d1be
00000280: 0edb b6be 5f17 edbe b85a b7be ffb3 3ebf
00000290: 8ec1 31be 9315 a9be 2a63 8fbe 235a 7e3e
000002a0: 6b34 ffbe c4d0 a3bd 2132 563e 074f 01bf
000002b0: a8cc 19bf 7f77 3bbe 8ac1 c5be 9e31 dbbd
000002c0: cda1 23be 4842 b5be 1616 11be ec9f d5be
000002d0: 4e19 6dbd 1c93 98be d66e 19bf d373 d2be
000002e0: d921 d9be 155c 88be 2465 03bf be92 1cbe
000002f0: 04d2 8bbd d0c5 efbd 9249 78be b19a 5cbe
00000300: 4620 dabe 7cf4 babe 2100 cdbe 4dc8 f5be
00000310: caa0 0bbf c2c4 813d 9c0f dbbe 94f2 13bf
00000320: d89a 09be 0cc6 a0be f156 cebe 6ff8 01be
00000330: 2694 adbe 366e 923d a71c 0ebf 807f 05bf
00000340: d4c1 b8be 5a2f 0ebf 668a e3bd cc0a aabd
00000350: 5bf8 8abc 2478 1dbf 2430 553e 45c4 fcbe
00000360: 4ade eabe 0b7b 2fbe 6cab 70be 3288 8e3e
00000370: 3ba3 32be 6b49 91be 55cd 02bf b9f3 1ebf
00000380: 7dc2 043e 7f7d de3c 66d1 c1be 41af 88be
00000390: c910 40be 065e afbe 5f44 1cbe 9c23 0dbf
000003a0: 3bdc 4abe ad62 c7be efe8 0cbf 62cd fabd
000003b0: 50a3 27bf a857 11bf d349 26be 9667 3fbe
000003c0: 2463 f13c c0ce 18bf f0a2 f9be 6151 23bd
000003d0: 2826 29be e3f0 08bf 04fc f4bc 3710 333e
000003e0: bda9 34bf bfb8 81be 8079 febe f54e 03bf
000003f0: bd7c 06bf a88f 73be d1ba 883e 491d 30be

fc2.weight f4 [300, 400]
-0.7168028 0.24248973 -0.73537946 -0.3814646 -0.14889732 0.42708105 0.27405202 -0.122656934
0.21202539 0.03550708 0.4978023 0.39049315 -0.055717554 0.43372673 -0.22331564 0.108770154
-0.08781048 0.25619832 0.38632593 0.27753684 -0.02893003 0.12957862 0.06867407 -0.054637812
-0.085854225 -0.0021258988 -0.03978176 -0.5116255 0.30501714 0.04487926 -0.10369998 0.03418263
-0.38836706 -0.31318927 -0.043524686 -0.05697457 -0.19693413 -0.43635046 -0.23504372 -0.011110804
-0.3807417 -0.450612 -0.19930984 -0.2069771 -0.433072 0.33572 0.120403334 -0.3722787
-0.2937165 -0.28486887 0.12110923 -0.3396684 0.13973472 -0.28140882 0.22569026 0.22584791
0.09482061 0.26334292 0.03372205 -0.3519121 -0.019537956 -0.0724698 0.017089304 0.38576788
-0.31241935 -0.22721924 -0.05287178 -0.6545476 -0.01802577 0.026921315 -0.06909392 -0.0741658
-0.08089112 0.12739053 0.6466011 0.094818726 -0.30891773 0.04500214 -0.33372167 -0.08905569
-0.9397306 -0.077415176 -0.32653755 -0.1710513 -0.32397893 0.0677138 0.47856343 0.29085356
0.51056886 -0.41684514 -0.007931661 -0.13327335 0.20243645 -0.45428917 -0.17606074 0.038251054
-0.9180209 0.27151924 0.5393303 -0.5361394 -0.34316677 -0.4249815 -0.02938052 0.39275554
0.065998 0.19728251 0.49795756 0.21819894 -0.38229647 -0.59027463 -0.18554305 -0.031002054
-0.51978546 0.031914074 -0.3683365 0.37325126 -0.14952591 0.21480855 -0.11316572 -0.6239267
-0.13680184 0.13898553 -0.33889467 0.4093075 0.017464364 0.17996396 0.19802645 -0.20762488
0.17609514 -0.096405275 0.17691822 -0.28330326 0.3449733 0.44803533 0.5107041 -0.14709729
0.7211772 -0.35961458 -0.27476442 0.1606639 -0.010435506 -0.44103125 -0.18363059 -0.19420798
0.023240542 -0.35900858 0.12097639 0.048291817 -0.15210313 -0.3028037 0.86351365 0.21963212
-0.4115388 -0.03816669 -0.0975089 -0.07742616 0.56149876 -0.1115832 0.52585423 -0.24802697
0.17783739 -0.21338801 0.11622673 0.016597742 -0.021100901 -0.6371469 0.49863735 -0.36055186
-0.12442599 -0.007014253 -0.522 -0.18105836 -0.021171413 -0.057848785 -0.27976802 0.054511424
-0.04842242 -0.20309761 0.034884695 -0.14644061 -0.15235972 0.06533417 -0.0067094634 -0.27064332
-0.2091175 0.45096034 -0.029146565 0.16816385 0.06184697 -0.119678326 0.21406399 0.20136218
0.49885866 -0.12601352 0.39599565 -0.084197745 0.06913685 -0.21796373 -0.2965876 0.13550615
0.04043465 0.19608289 -0.39700687 0.10270733 -0.40567684 0.043600798 -0.21689822 0.32002237
-0.3524902 -0.30404845 0.08338798 -0.06531623 -0.30049646 -0.071879506 -0.34108806 -0.040042713
0.43698263 0.24985349 -0.07969243 -0.43820196 -0.22774616 -0.15205443 -0.5228975 0.10358585
-0.30105686 0.2998153 -0.35472718 0.36167532 -0.28280824 -0.00086011 -0.7056241 0.14912753
-0.11618187 0.28757864 -0.24554501 0.022856047 -0.5994707 0.0022591257 -0.6143338 0.6057876
-0.9016879 -0.23079512 -0.4166618 -0.32608667 0.23844786 -0.31424108 -0.7284835 0.3946804
-0.21556117 -0.076107115 -0.7789353 0.39069194 -0.12582336 0.101460285 -0.34779713 0.08154798
00000000: 6380 37bf 3a4f 783e d441 3cbf 544f c3be
00000010: 8a78 18be 5eaa da3e 8c50 8c3e 8f33 fbbd
00000020: 2f1d 593e df6f 113d f1df fe3e b8ee c73e
00000030: 1738 64bd 6e11 de3e dbac 64be e3c2 de3d
00000040: fbd5 b3bd 6d2c 833e 83cc c53e 4f19 8e3e
00000050: acfe ecbc 42b0 043e fea4 8c3d e6cb 5fbd
00000060: 57d4 afbd aa52 0bbb 33f2 22bd e4f9 02bf
00000070: 352b 9c3e 51d3 373d a860 d4bd 1603 0c3d
00000080: 0cd8 c6be 585a a0be f146 32bd 2b5e 69bd
00000090: 1aa9 49be 5469 dfbe 4daf 70be 170a 36bc
000000a0: 93f0 c2be 9eb6 e6be e117 4cbe cef1 53be
000000b0: 9dbb ddbe 7ee3 ab3e 0696 f63d 509b bebe
000000c0: 0262 96be 55da 91be 1e08 f83d 04e9 adbe
000000d0: 9e16 0f3e d114 90be 591b 673e ad44 673e
000000e0: 4f31 c23d e2d4 863e 2220 0a3d d32d b4be
000000f0: 100e a0bc 0c6b 94bd defe 8b3c 5e83 c53e
00000100: 6ef5 9fbe 29ac 68be 1490 58bd 6e90 27bf
00000110: c8aa 93bc 178a dc3c 1d81 8dbd 3de4 97bd
00000120: 3eaa a5bd aa72 023e a687 253f 5230 c23d
00000130: 772a 9ebe 2a54 383d 91dd aabe d462 b6bd
00000140: 2f92 70bf d98b 9ebd ee2f a7be 1228 2fbe
00000150: 91e0 a5be 88ad 8a3d 4406 f53e c2ea 943e
00000160: a4b4 023f ba6c d5be ccf3 01bc cf78 08be
00000170: 804b 4f3e 9798 e8be 4449 34be 23ad 1c3d
00000180: 6b03 6bbf 9204 8b3e 8d11 0a3f 6f40 09bf
00000190: 8eb3 afbe 2d97 d9be 6baf f0bc 4117 c93e
000001a0: f629 873d 6d04 4a3e 4bf4 fe3e 8b6f 5f3e
000001b0: 5dbc c3be 3d1c 17bf fffe 3dbe 05f8 fdbc
000001c0: a910 05bf 55b8 023d 9a96 bcbe ca1a bf3e
000001d0: 521d 19be c6f6 5b3e 6ec3 e7bd a9b9 1fbf
000001e0: c815 0cbe 3952 0e3e 9a83 adbe c190 d13e
000001f0: 6d11 8f3c 7948 383e 72c7 4a3e 9e9b 54be
00000200: 4952 343e 2170 c5bd 0d2a 353e 200d 91be
00000210: 57a0 b03e e364 e53e 81bd 023f aca0 16be
00000220: 129f 383f 671f b8be ecad 8cbe 1485 243e
00000230: aff9 2abc d9ce e1be a809 3cbe 75de 46be
00000240: f362 be3c f9cf b7be 78c2 f73d a4cd 453d
00000250: ecc0 1bbe 1609 9bbe 3b0f 5d3f 3ee7 603e
00000260: 37b5 d2be ad54 1cbd bfb2 c7bd 9b91 9ebd
00000270: 62be 0f3f bc85 e4bd 629e 063f c8fa 7dbe
00000280: 011b 363e 6382 5abe 4808 ee3d fdf7 873c
00000290: ccdb acbc 0f1c 23bf 654d ff3e 419a b8be
000002a0: 0ed3 febd d2d7 e5bb cba1 05bf 5d67 39be
000002b0: ac6f adbc d9f2 6cbd c13d 8fbe 5f47 5f3d
000002c0: 9656 46bd d2f8 4fbe 41e3 0e3d 87f4 15be
000002d0: 3004 1cbe eccd 853d 0fdb dbbb c391 8abe
000002e0: e622 56be 46e4 e63e c7c4 eebc 2533 2c3e
000002f0: 4053 7d3d e919 f5bd 9733 5b3e e331 4e3e
00000300: 676a ff3e b009 01be f1bf ca3e de6f acbd
00000310: 9f97 8d3d e231 5fbe 54da 97be 20c2 0a3e
00000320: ce9e 253d f4c9 483e 7c44 cbbe 3858 d23d
00000330: e0b4 cfbe c096 323d 911a 5ebe f9d9 a33e
00000340: 9879 b4be 3dac 9bbe 51c7 aa3d 84c4 85bd
00000350: acda 99be 9035 93bd 18a3 aebe d403 24bd
00000360: 30bc df3e 98d9 7f3e c935 a3bd 025c e0be
00000370: 4a36 69be 28b4 1bbe 9cdc 05bf d124 d43d
00000380: 2024 9abe 6481 993e cd9e b5be 822d b93e
00000390: 3ecc 90be 0179 61ba c8a3 34bf e3b4 183e
000003a0: c3f0 edbd 823d 933e 2770 7bbe 9b3c bb3c
000003b0: e976 19bf d70d 143b fb44 1dbf e514 1b3f
000003c0: 05d5 66bf 8e55 6cbe b254 d5be d5f4 a6be
000003d0: ad2b 743e 35e4 a0be e57d 3abf 8d13 ca3e
000003e0: 11bc 5cbe 0cde 9bbd 4e68 47bf c608 c83e
000003f0: d7d7 00be 69ca cf3d 7712 b2be a102 a73d

fc2.bias f4 [300]
-0.08496507 -0.1102229 0.07938716 -0.11952311 -0.37087187 0.27078226 0.31765032 -0.07648284
0.2241233 -0.13655457 0.13985126 -0.12985262 -0.66518867 0.086643055 -0.18408732 0.1293233
-0.008616593 -0.35526547 0.38911706 0.5188967 0.27681834 -0.10944957 0.17817636 -0.14271228
-0.30086055 -0.14744437 0.15348853 -0.59114444 -0.059110943 -0.1014283 -0.16847321 -0.042505547
-0.36616763 -0.18109953 -0.5685426 -0.006425503 -0.14028233 -0.081916004 -0.13541357 0.049097214
-0.4346085 -0.18522406 -0.7076487 -0.04200638 0.05579494 -0.13235867 -0.7128682 -0.15305068
-0.08251361 -0.31164026 -0.6355818 0.07335683 -0.3302744 0.008830502 -0.38027418 -0.15669475
0.30259982 0.04292785 -0.20162524 0.07351087 0.004027915 0.042268183 -0.1896599 -0.3728717
-0.09523115 0.24254629 -0.6106259 -0.023410376 -0.10840157 0.21234098 0.17602667 0.25653923
-0.021113012 -0.19973482 0.12886453 -0.1728907 -0.44321328 0.18615384 -0.28968963 0.10360593
-0.004103253 -0.10851709 -0.1399204 -0.35918486 -0.3157502 -0.09059217 -0.35056415 0.018524868
0.010714271 0.003854783 -0.057897743 -0.6427903 -0.10390138 0.21403356 -0.06796702 0.27129984
0.01827774 0.3074794 -0.04264167 0.08329148 0.011771204 -0.38662538 -0.56848156 -0.2365616
0.012159688 -0.052259993 0.100256346 0.007717759 -0.20647387 0.08897555 -0.08939659 -0.5558775
0.04274938 -0.20226279 0.42559063 -0.01007261 -0.0445819 0.16853029 -0.022547588 -0.19778904
-0.18633015 0.14643714 -0.12637602 -0.018432707 -0.28271863 -0.0726444 0.2974597 -0.03234673
-0.044698395 -0.3039119 -0.1106488 0.23135142 -0.021187756 -0.25740486 0.0016961558 -0.17319208
-0.052908745 0.032578275 -0.5415748 0.17367314 -0.6185165 -0.076132424 -0.23725066 -0.46625298
0.117519304 -0.13273057 0.23075494 -0.41468602 -0.26429534 0.22057472 0.08456249 -0.034245197
0.13875026 -0.19421448 0.009929454 -0.2851599 -0.13353926 -0.2447422 -0.08570445 0.22381724
0.19778825 0.0046950798 -0.15564395 0.0017675764 -0.3231198 -0.5234281 -0.049838927 -0.61366767
-0.37934855 0.26071003 -0.08163758 0.3584323 -0.47789514 0.303158 0.0033552274 0.1733296
-0.20076345 -0.14753616 -0.10775452 -0.6369965 0.31768215 -0.34788206 0.0063226447 -0.35249254
-0.045396406 -0.04640854 -0.22540751 -0.2454857 0.00012513228 -0.005023495 0.063781545 0.52342415
-0.3745006 -0.19170657 -0.09865764 -0.11370082 -0.34626922 0.07102356 -0.13931368 0.2830728
0.16244937 -0.20199478 -0.23102435 -0.15166746 -0.008346158 -0.13640137 -0.38821083 0.24499406
0.111618295 -0.33097714 -0.3142865 -0.16160192 -0.2467218 -0.16541964 -0.3298421 -0.5349204
0.002217491 -0.30380192 0.21797466 0.27803463 0.09959727 -0.1140148 -0.6501298 -0.44919896
-0.21063806 -0.24227804 0.28490692 -0.0755762 -0.09343992 0.18782043 0.27625427 -0.01100773
-0.1805299 0.20849834 -0.19626921 -0.08457956 -0.55513 -0.0055010025 -0.39654592 -0.15658447
-0.10535448 0.23992164 -0.2472832 -0.20143217 0.26974356 -0.15216382 -0.33742788 0.12972139
-0.63360995 0.015767224 -0.21447515 -0.09034549 -0.02737276 0.34337804 -0.17034656 -0.1869434
00000000: 2b02 aebd 8bbc e1bd bc95 a23d 88c8 f4bd
00000010: ebe2 bdbe f9a3 8a3e 10a3 a23e 09a3 9cbd
00000020: 9480 653e f6d4 0bbe 2b35 0f3e 16f8 04be
00000030: ce49 2abf ea71 b13d 6381 3cbe 546d 043e
00000040: 9c2c 0dbc 5be5 b5be 5a3a c73e 6ad6 043f
00000050: 22bb 8d3e 1927 e0bd dd73 363e 2b23 12be
00000060: 650a 9abe a8fb 16be 192c 1d3e 3e55 17bf
00000070: 511e 72bd a4b9 cfbd 3e84 2cbe 4c1a 2ebd
00000080: 537a bbbe 2872 39be 028c 11bf 078d d2bb
00000090: 2ca6 0fbe 94c3 a7bd dba9 0abe 291a 493d
000000a0: 0185 debe 60ab 3dbe 7728 35bf e20e 2cbd
000000b0: 3c89 643d 0889 07be 887e 36bf 51b9 1cbe
000000c0: e5fc a8bd 508f 9fbe 7db5 22bf 1b3c 963d
000000d0: ba19 a9be cfad 103c 4cb3 c2be 9774 20be
000000e0: 5dee 9a3e 1dd5 2f3d d976 4ebe de8c 963d
000000f0: 9afc 833b 6721 2d3d 3436 42be 0ae9 bebe
00000100: 8d08 c3bd 0e5e 783e fb51 1cbf 1ec7 bfbc
00000110: a401 debd ea6f 593e 5640 343e 1c59 833e
00000120: 32f5 acbc 4987 4cbe 10f5 033e 420a 31be
00000130: daec e2be 1d9f 3e3e 3352 94be 592f d43d
00000140: 9574 86bb 353e debd 4b47 0fbe 14e7 b7be
00000150: 03aa a1be 6388 b9bd 257d b3be 77c1 973c
00000160: e98a 2f3c 87a0 7c3b 2f26 6dbd e88d 24bf
00000170: 3fca d4bd 9d2b 5b3e 4b32 8bbd d0e7 8a3e
00000180: 33bb 953c f16d 9d3e 08a9 2ebd b994 aa3d
00000190: 02dc 403c c3f3 c5be 0288 11bf 343d 72be
000001a0: 6e39 473c 930e 56bd 3353 cd3d 41e5 fc3b
000001b0: e36d 53be d038 b63d 8f15 b7bd fd4d 0ebf
000001c0: f919 2f3d fa1d 4fbe 04e7 d93e 9707 25bc
000001d0: 839b 36bd 3493 2c3e b8b5 b8bc 3689 4abe
000001e0: 55cd 3ebe 9ef3 153e b768 01be 3000 97bc
000001f0: 7fc0 90be 96c6 94bd a34c 983e 017e 04bd
00000200: aa15 37bd 579a 9bbe d79b e2bd 63e7 6c3e
00000210: f291 adbc 92ca 83be 8b51 de3a 4459 31be
00000220: d7b6 58bd cc70 053d a5a4 0abf 5fd7 313e
00000230: 1957 1ebf 51eb 9bbd d6f1 72be b6b8 eebe
00000240: f6ad f03d 86ea 07be 064b 6c3e ba51 d4be
00000250: b851 87be 57de 613e 192f ad3d b144 0cbd
00000260: 8c14 0e3e 29e0 46be 26af 223c 7a00 92be
00000270: 84be 08be b39d 7abe d185 afbd 5930 653e
00000280: 0189 4a3e 2fd9 993b 2161 1fbe 06ae e73a
00000290: f56f a5be 62ff 05bf e723 4cbd 5319 1dbf
000002a0: f939 c2be c97b 853e 9b31 a7bd 7084 b73e
000002b0: acae f4be 8637 9b3e 60e3 5b3b 517d 313e
000002c0: ef94 4dbe b813 17be 67ae dcbd 3412 23bf
000002d0: 3ca7 a23e 991d b2be 302e cf3b e779 b4be
000002e0: 95f1 39bd e216 3ebd 3ad1 66be 9a60 7bbe
000002f0: f135 0339 219c a4bb e69f 823d 20ff 053f
00000300: 8bbe bfbe ba4e 44be 040d cabd fadb e8bd
00000310: 334a b1be cd74 913d 3fa8 0ebe ebee 903e
00000320: 2159 263e b8d7 4ebe a691 6cbe b74e 1bbe
00000330: 53be 08bc cdac 0bbe 92c3 c6be b9df 7a3e
00000340: 2298 e43d d675 a9be 29ea a0be f97a 25be
00000350: a4a4 7cbe c463 29be 10e1 a8be 8bf0 08bf
00000360: 5353 113b ed8b 9bbe c034 5f3e 8e5a 8e3e
00000370: a7f9 cb3d 9780 e9bd e86e 26bf 68fd e5be
00000380: 81b1 57be bc17 78be 52df 913e b2c7 9abd
00000390: 6e5d bfbd 0054 403e 3371 8d3e c459 34bc
000003a0: d5dc 38be 9780 553e ccfa 48be 0c38 adbd
000003b0: 001d 0ebf c141 b4bb 1108 cbbe ae57 20be
000003c0: 17c4 d7bd 05ae 753e cf37 7dbe 3c44 4ebe
000003d0: d41b 8a3e d5d0 1bbe 59c3 acbe afd5 043e
000003e0: 4334 22bf 442a 813c 609f 5bbe 0e07 b9bd
000003f0: d73c e0bc 3fcf af3e 546f 2ebe 176e 3fbe

fc3.weight f4 [4, 300]
-0.00788234 -0.30918935 0.0034680143 0.035095554 -0.0020332711 0.12438446 0.16565682 -0.051320057
0.09579401 -0.11976739 0.15058862 -0.47453868 0.6178656 -0.18338251 -0.029216554 -0.10179563
0.008724987 0.09255273 0.14935271 0.14330432 -0.095679924 -0.013602106 0.096601225 0.035374746
-0.51450336 0.5782446 -0.38177422 -0.38478026 0.13814138 0.28570646 0.072986186 0.047821026
0.5920605 0.0567117 0.08737106 -0.014188056 -0.20065242 0.013329134 -0.21173573 0.432781
0.51798654 0.06477252 0.68927974 0.16685681 0.09114709 0.048121892 0.52914375 0.075382344
0.07562254 -0.42053726 0.2769731 0.008949069 -0.45256454 0.11598115 0.43647844 -0.18606107
0.038204364 -0.22166464 -0.04397248 0.13409235 0.009695021 -0.6109994 0.059336346 -0.05543269
0.022943452 0.07528701 -0.051282283 0.07866012 0.40408486 -0.2869819 -0.103990585 -0.06760234
-0.015519661 0.003081953 -0.050335422 -0.044094283 -0.07944008 0.07319114 -0.38795307 0.5610088
0.3437917 0.013192855 -0.10848027 -0.50990915 -0.2584663 0.09332137 -0.26020473 0.016663747
0.059134677 -0.115106255 0.2435119 -0.43589053 -0.3876927 0.3877795 0.29747024 -0.38006997
0.020922506 0.035821978 -0.0014464508 0.098123394 0.032130186 -0.044087823 0.45400456 -0.3040126
-0.004135391 -0.6611447 0.10988449 -0.066831976 -0.47057924 0.00023288801 0.17976981 0.2517276
-0.5422888 -0.087190576 0.26253015 -0.23090227 0.6153227 0.109099 -0.16731158 -0.23500194
0.021085061 -0.058540624 0.09773603 0.29844198 -0.097004 0.062230866 0.020517066 0.14902928
-0.26590466 -0.018571267 0.93417543 -0.10445454 0.06650035 -0.1437504 0.0075724423 -0.4597791
0.06148937 0.12689124 0.29318157 -0.16473208 0.5794788 -0.47741917 0.41505912 -0.45842096
-0.5707211 -1.0357947 -0.036379784 0.063504584 0.34933868 0.42225134 0.014402513 0.043691803
0.31078112 0.11298008 -0.113377005 0.9314825 0.033268962 0.102759376 -0.27961144 0.13093308
-0.08491019 0.0056751035 0.6011791 0.12432881 -0.44706076 0.52362937 0.05327037 -0.29298392
-0.039105598 -0.13660887 0.25211006 0.29939514 -0.3419497 0.2604972 0.0031685326 0.13202037
0.0017907834 -0.16053745 0.6429269 0.63428295 0.034354027 0.07119951 0.51936746 -0.07030691
0.07765162 0.007241997 -0.15952975 0.029751694 -0.0095421495 0.33675864 0.08035796 0.06517706
-0.097982585 0.43514267 0.20173474 0.5670187 -0.35805362 0.123576984 0.05478226 -0.2491209
-0.10231221 -0.13397634 -0.23344953 -0.02082146 0.0522586 0.13115261 -0.01795268 -0.110436976
0.335778 -0.53151107 0.05039209 -0.01246099 -0.037540648 0.02817301 -0.275871 0.67656267
-0.33444348 0.32199478 0.24094321 0.24284637 0.101695575 0.11736498 -0.35520148 -0.4626774
0.05943588 -0.13459675 0.20032378 0.021191075 0.0025560753 -0.011818989 0.048386108 -0.0051154923
0.1850078 0.03970216 0.16274501 0.012412704 -0.7766416 0.121967465 0.27567947 0.14583291
0.18825127 -0.11510203 -0.14921445 -0.0023692332 -0.11767931 0.098107405 0.022992596 0.12120442
0.1717463 -0.010458016 -0.3829931 -0.10697236 0.01262226 -0.013832085 0.027959708 0.010502625
00000000: ee24 01bc 114e 9ebe a047 633b 5bc0 0f3d
00000010: a140 05bb 48bd fe3d f1a1 293e fb34 52bd
00000020: a62f c43d 9b48 f5bd e733 1a3e bcf6 f2be
00000030: 712c 1e3f a0c8 3bbe 8e57 efbc 3a7a d0bd
00000040: 3ff3 0e3c 498c bd3d ebef 183e 5ebe 123e
00000050: d6f3 c3bd 5edb 5ebc ddd6 c53d 1ce5 103d
00000060: 7eb6 03bf d707 143f e977 c3be eb01 c5be
00000070: ef74 0d3e 1e48 923e c879 953d fbdf 433d
00000080: 4791 173f 874a 683d 99ef b23d 0575 68bc
00000090: d477 4dbe 7162 5a3c 40d1 58be 7995 dd3e
000000a0: c49a 043f 74a7 843d a374 303f 83dc 2a3e
000000b0: 53ab ba3d 761b 453d f775 073f 0f62 9a3d
000000c0: fedf 9a3d a950 d7be 6bcf 8d3e 1e9f 123c
000000d0: 8ab6 e7be 8687 ed3d 1a7a df3e cb86 3ebe
000000e0: 2e7c 1c3d 0efc 62be 7d1c 34bd 814f 093e
000000f0: ded7 1e3c 756a 1cbf ab0a 733d 630d 63bd
00000100: e8f3 bb3c 1330 9a3d 5f0d 52bd 8f18 a13d
00000110: 36e4 ce3e 4bef 92be 04f9 d4bd 1873 8abd
00000120: 2d46 7ebc 97fa 493b 842c 4ebd 359c 34bd
00000130: 7bb1 a2bd 3de5 953d c9a1 c6be 469e 0f3f
00000140: 7705 b03e d826 583c e72a debd 6889 02bf
00000150: b255 84be 461f bf3d 8e39 85be 6982 883c
00000160: 3437 723d d4bc ebbd 2f5b 793e 0b2d dfbe
00000170: a87f c6be 098b c63e 054e 983e 8898 c2be
00000180: ad65 ab3c 11ba 123d d696 bdba ebf4 c83d
00000190: f19a 033d 6f95 34bd 4973 e83e 8aa7 9bbe
000001a0: 2d82 87bb c740 29bf 1f0b e13d 34df 88bd
000001b0: c3ef f0be 6633 7439 9415 383e 71e2 803e
000001c0: 70d3 0abf f990 b2bd 5a6a 863e a571 6cbe
000001d0: ca85 1d3f 4c6f df3d ba53 2bbe 59a4 70be
000001e0: 94ba ac3c 4bc8 6fbd d429 c83d 63cd 983e
000001f0: 08aa c6bd cbe5 7e3d 6813 a83c 229b 183e
00000200: a824 88be c522 98bc 1f26 6f3f 43ec d5bd
00000210: 5631 883d 4e33 13be 4022 f83b 2b68 ebbe
00000220: 47dc 7b3d c7ef 013e e51b 963e 87af 28be
00000230: b958 143f 4970 f4be a182 d43e 27b6 eabe
00000240: c71a 12bf ec94 84bf f802 15bd b10e 823d
00000250: 85dc b23e 5431 d83e 85f8 6b3c 2df6 323d
00000260: b41e 9f3e 1a62 e73d 3432 e8bd a375 6e3f
00000270: 0945 083d 8273 d23d 3b29 8fbe 5213 063e
00000280: 65e5 adbd 38f6 b93b e0e6 193f 1aa0 fe3d
00000290: 26e5 e4be 930c 063f 0832 5a3d fd01 96be
000002a0: 312d 20bd 32e3 0bbe 9214 813e 524a 993e
000002b0: 0814 afbe e45f 853e 28a7 4f3b 5930 073e
000002c0: b8b8 ea3a ee63 24be db96 243f 5e60 223f
000002d0: cfb6 0c3d 0cd1 913d 44f5 043f 12fd 8fbd
000002e0: d007 9f3d 464e ed3b c45b 23be d3b9 f33c
000002f0: ad56 1cbc a16b ac3e b792 a43d 8d7b 853d
00000300: 18ab c8bd 05cb de3e 8d93 4e3e 2328 113f
00000310: ce52 b7be ee15 fd3d 5d63 603d 8d19 7fbe
00000320: 1089 d1bd 1831 09be 650d 6fbe c491 aabc
00000330: 1d0d 563d df4c 063e 8011 93bc c82c e2bd
00000340: 18eb ab3e 1c11 08bf f067 4e3d 2e29 4cbc
00000350: 39c4 19bd 16cb e63c f73e 8dbe 3633 2d3f
00000360: 2d3c abbe 80dc a43e d1b9 763e b8ac 783e
00000370: c545 d03d 0d5d f03d f8dc b5be 0de4 ecbe
00000380: 0a73 733d bbd3 09be ad21 4d3e e898 ad3c
00000390: d483 273b 6fa4 41bc 8330 463d dc9f a7bb
000003a0: af72 3d3e bb9e 223d a1a6 263e a75e 4b3c
000003b0: fcd1 46bf 14ca f93d dc25 8d3e 3955 153e
000003c0: f1c4 403e 9dba ebbd accb 18be 2345 1bbb
000003d0: da01 f1bd 89ec c83d f85a bc3c 063a f83d
000003e0: 43de 2f3e 1958 2bbc ac17 c4be 5314 dbbd
000003f0: 98cd 4e3c f89f 62bc c20b e53c 3413 2c3c

fc3.bias f4 [4]
0.17655462 -0.21284734 0.15925142 -0.07917788
00000000: bcca 343e a7f4 59be ce12 233e 0328 a2bd
