project2_continuous_control/checkpoint_critic.pth (torch_old, 542602 bytes, 5 tensors)

fcs1.weight f4 [400, 33]
00000000: 0b21 a6be 647b 6e3e 112a 52be 4054 9cbb
00000010: 2e42 88be 05b1 14be c0f1 0cbe c84c 43be
00000020: 708c 173d 2b63 bfbd 76f2 ffbd c587 8bbe
00000030: e8a5 fcbd fd2f a8bc 93f4 393d 19dc bc3d
00000040: 68b0 3dbe 1a2f 643c ee02 1f3e 9a5b cfbd
00000050: d141 67be 3381 cf3e e1ea 743e d36d 053e
00000060: 185d 463e 27a0 15bb 16b1 8abd 88d4 553f
00000070: c1fb 41be 767f 9a3c 13ec 57bf e487 793c
00000080: c610 89bf 7284 f33d 3d16 a13e 17d6 d1be
00000090: 8951 ddbd 5772 86bc 7311 5abd d583 a73c
000000a0: 0eab 303d 9717 82bd da10 c83d bba4 a93d
000000b0: 1e8c f93c 81c8 c73c 17da bcbe 9255 bdbc
000000c0: ee38 d03e a162 a33c e9c8 35be 7871 bdbe
000000d0: 7c89 873b 5fc4 03bc 5dc8 e6ba ef09 b33b
000000e0: 8120 b83d 90b1 3bbd 080d 4f3e 55f0 363d
000000f0: 867b 093f 7e5c 8ebe 50bf b4bc e8bb 10bf
00000100: d5e6 403d 5ff5 a1bf 4489 953e 7927 cc3e
00000110: 1bc7 683e c22a 9fbd a9bd e9bd 1886 c83d
00000120: 250f d2bd 2cae 95be 1368 33be 496a 763e
00000130: 1092 b93d 043e 96bc 2df7 063e 8f01 96be
00000140: 432d e1bc a20f 0dbd 90c5 893d 78e1 10bd
00000150: f8f3 fcbd 3854 6cbc 0a4a b03d c256 c5be
00000160: 8b8c 1abe 938c 93bd 1f7d 52bd 5b2b 793d
00000170: cd76 02bd e02a bf3e 70e9 46be e834 233c
00000180: 3d97 a9be 3062 14bd 12df 13bf 8fa7 823d
00000190: 63b1 713d 77e2 343d 8e08 0abe 0668 f83d
000001a0: bdc5 58bc 02b7 a23e 8829 0b3e 7256 81be
000001b0: caf1 febe 0c30 0d3e 3c21 e23c b4e5 fb3d
000001c0: 04f1 5b3e e439 743e 6968 493e e108 a93d
000001d0: f340 583d 0705 b73d a306 4b3c 8d20 d9be
000001e0: 61fc 57be 92bb cebd bfc9 563e 6deb d8bd
000001f0: dc56 353e 98a9 fd3c f17a 763f ee07 0bbe
00000200: 3402 8abc 0026 65bf 986c 40bc fea6 ef3e
00000210: b27a 86bd 0d4c c13e 2135 453d 8205 b6be
00000220: 2bfb 523e ae7d bebd e270 82be 418c 5fbe
00000230: 21eb af3d fa78 1e3e 56ad 363d ee4c 093e
00000240: 0046 d13d 2bfd 48bd 4a66 bc3e c679 f33d
00000250: 4218 9f3d 2abb 553d 66f0 9338 c9d0 ec3b
00000260: 6df0 10bd 775c 273d 477f 31be d95e 3b3d
00000270: eb5f 4e3e 1c41 ba3c c376 fabc 0c09 883f
00000280: ae3f 82be acad 0f3c 8c06 8dbf 6c52 8cbc
00000290: 5c87 9c3d 9264 273d 4ece 943e 9966 a53e
000002a0: ed3f 8ebd e1eb ea3d 9205 5c3d 5b69 303e
000002b0: 50cd be3c a443 4c3e ca33 163e 15e5 0a3e
000002c0: 3662 ba3d 8a1d 6e3d 5113 683e 1fb7 52be
000002d0: 1946 93be 4a60 343d a63a 8d3d 7841 3a3e
000002e0: 46dd eb3d ccc9 e3bc b1ba 13bb c1d3 0c3e
000002f0: 11e8 febc 6678 41be 88f1 94bd 1f81 093e
00000300: 0fdf 8d3f b324 aebc fd04 1d3d 1c74 89bf
00000310: fd75 0c3d e2c7 34be ef03 c23d e139 913d
00000320: 35e3 3abe d43a 76be f8ef a93e 5fe6 7e3d
00000330: e303 29be 7835 8f3d c30c 5b3d 80ec 18bd
00000340: 318b 8e3e 9018 dbbc 3a28 4cbe 8461 2d3e
00000350: 00d6 cf3d d417 34bd aa3d 95bd 344e 65bc
00000360: 79b7 1ebd bdf5 643b 9a04 a0bc 1203 6fbc
00000370: 6777 82be 8d40 5c3e 72d7 0f3e 9e07 a9bd
00000380: f01d 92bd 817b 7d3f 1ff4 bf3e 64d1 723c
00000390: 8f60 6bbf e7cc dfbc 3eb8 8abf 3f50 5cbe
000003a0: fe18 b8be 895b b7bb 828a 273e b021 03be
000003b0: 7c91 65bd fdbb abbd 6bfa 333e 8e28 253e
000003c0: d2f5 b03b fe75 af3d 7f2d 2fbe d0bb 21bd
000003d0: 9813 b03e 2379 183d 4cf0 d8bd 6628 263d
000003e0: 8f64 1d3d ee76 25bc fd72 db3c a487 b2bc
000003f0: 6315 8abd 77b9 85bd 521b 8f3e a0f1 d13d
-0.32447085 0.23289257 -0.2052386 -0.0047707856 -0.2661299 -0.14520653 -0.13764095 -0.19072258
0.036999166 -0.09345087 -0.12497418 -0.2725202 -0.123363316 -0.020530695 0.04539926 0.09221668
-0.18524325 0.0139272455 0.15528461 -0.101248935 -0.225837 0.4052826 0.23917724 0.13030176
0.1937145 -0.0022831054 -0.06772058 0.8352742 -0.18943693 0.018859606 -0.84344596 0.015230153
-1.0708244 0.11890496 0.3146228 -0.4098365 -0.10806567 -0.016411943 -0.053239297 0.020448605
0.04313188 -0.06352156 0.09768839 0.08283373 0.03046232 0.0243876 -0.3688514 -0.023112092
0.40668434 0.01994449 -0.17752422 -0.37000632 0.0041362625 -0.008042424 -0.001760732 0.0054638307
0.08990575 -0.045823634 0.20219815 0.044662792 0.53704107 -0.2780494 -0.022063881 -0.5653672
0.04709514 -1.2653006 0.29206288 0.39873865 0.22732203 -0.07771827 -0.11413128 0.09791201
-0.10256795 -0.29234445 -0.1752017 0.24063982 0.09061062 -0.018340118 0.13180228 -0.29298064
-0.027487403 -0.034438737 0.06727135 -0.035371274 -0.12351221 -0.014424376 0.08607872 -0.38542753
-0.15092675 -0.07204547 -0.051388856 0.060832363 -0.03185158 0.373374 -0.19424987 0.009961344
-0.33123198 -0.03622645 -0.57762253 0.063796155 0.05900706 0.044161286 -0.13479826 0.12129216
-0.013230738 0.3178025 0.13590062 -0.25261265 -0.49793845 0.1378786 0.027603738 0.12299672
0.21478659 0.23850209 0.19668736 0.08253647 0.052796315 0.08936506 0.012391719 -0.42407647
-0.21092369 -0.1009437 0.20975398 -0.10591779 0.17708915 0.030964658 0.96281344 -0.13577244
-0.016846754 -0.8951111 -0.011744641 0.46807092 -0.06566371 0.37753335 0.04814637 -0.35551077
0.20603625 -0.09301315 -0.25476748 -0.21830846 0.08589769 0.15475836 0.0445989 0.13408253
0.102184296 -0.049069565 0.3679679 0.11888461 0.07768299 0.052180447 7.054284e-05 0.0072270376
-0.035385538 0.040859666 -0.17333709 0.04574475 0.20153777 0.022736125 -0.030574208 1.0627761
-0.2543921 0.008769434 -1.1017623 -0.017129146 0.07643005 0.040867396 0.29063648 0.32304838
-0.069457866 0.114707716 0.05371625 0.1722769 0.02329126 0.19947678 0.14668193 0.1356395
0.091007635 0.05813364 0.22663619 -0.20577668 -0.28764418 0.04403714 0.06895952 0.18189037
0.11516814 -0.027806185 -0.0022541697 0.13752653 -0.031116517 -0.18893585 -0.07272631 0.13428162
1.1083697 -0.021257734 0.038334835 -1.0738559 0.03429221 -0.17654374 0.094734065 0.07091118
-0.18250735 -0.24045879 0.33190894 0.062231418 -0.16505389 0.0699262 0.053478967 -0.03733492
0.2784057 -0.02674511 -0.1993722 0.1693173 0.10148239 -0.043968037 -0.07287152 -0.013995696
-0.038749192 0.003493651 -0.019533444 -0.014588134 -0.25481722 0.21508999 0.1404703 -0.08253406
-0.071346164 0.99016577 0.37490937 0.01482043 -0.9194421 -0.027319385 -1.0837476 -0.21514986
-0.35956568 -0.0055956286 0.1636143 -0.1280582 -0.056046948 -0.08385465 0.17575996 0.16128752
0.005400398 0.08567427 -0.17107199 -0.039485753 0.3438995 0.0372249 -0.10592708 0.04056587
0.03842598 -0.010099156 0.02678823 -0.021793194 -0.067423604 -0.06529515 0.2795053 0.102511644

fcs1.bias f4 [400]
00000000: c5a6 63bf 11f6 1ebf b0fa 42be 93ec 69bf
00000010: 65a4 9ebf 7692 9cbf f2b9 8bbf 01c7 a13e
00000020: 4333 7abf c23d 65bf f769 ddbe 4783 6cbf
00000030: 40e4 ebbe 3cda 34bf 2434 cabe d5c5 89bf
00000040: bdab c7be cf49 17bf 6141 3dbf fd49 29bf
00000050: 56c5 89bf b883 34bf 27ad a4be 1ad3 3ebf
00000060: 95f4 53bf 0fd7 0abf 0144 2abf 4013 66be
00000070: 9e1b 33be 1b0f 85bf a406 40bf 3457 4ebf
00000080: 9f95 2fbf f254 0abf 1ffa 24bf 536c 09bf
00000090: 98b0 3dbf ee07 82bf 58cf 3c3d fa9a 63bf
000000a0: 371e 0cbf 4e93 24bd 28aa 03bf 6aec 30bd
000000b0: fee4 0dbf 8152 20bf 64fc 4ebf 4f32 00bf
000000c0: 3e5e 15bf c5dd 9abf 9c1c 84bf 6342 62bf
000000d0: abef b7be 43b3 71be 59ab 67be d9ea b8be
000000e0: a9c2 8fbf 2e7a 87bf da86 31bf 5c9d 5ebf
000000f0: 95dc a6be 2f5c 57bf 8e7c 3dbf 4689 0bbf
00000100: 8051 9cbf 40a9 24bf a1a3 9ebe 8bf1 83bf
00000110: 51b1 80bf 657b 78bf 718a 7dbf 9a28 28bf
00000120: ddb8 0cbf c396 54bf e15b 20bf 1f9e 4bbf
00000130: 11d4 5dbf fd58 5fbf 9f51 52bf d3af dfbe
00000140: aa56 0bbf cc7b 4cbf 8e29 eabe 4e45 1dbf
00000150: 97ec 6dbe a4ff 20bf 0537 7fbf 73e4 06bf
00000160: 590f 09bf 5ad3 68be 2648 5abf e6f4 9cbe
00000170: 2cf4 74bf e282 11bf 411b c0be 5c15 84bf
00000180: f9a7 48bf fa95 65be 675a b7be 0bd7 73bf
00000190: 7465 acbe 56d6 5cbf fdeb febe e990 55bf
000001a0: 8966 30bf 7d13 1dbf a6cc 3bbf eaa6 62bf
000001b0: 45d3 91bf d83b 15bf 3825 73bf adfc ebbe
000001c0: 6741 51bf 96c0 1ebf d67f 20be 383b 22bf
000001d0: b5f2 35bf 7c56 59bf a96b 6fbf 081d 01bf
000001e0: 2536 1abf 701d 50bf fb7e 67bf 899a cabe
000001f0: a0f3 87bf 08e4 63be 56c4 323d 18a7 92be
00000200: d5ad 81bf da7e 93bf 724f 70bf e9a9 65bf
00000210: 6e78 36be 4312 5abf 6fcf 39bf b545 31bf
00000220: e888 0abe 1c45 65bf 0725 c0bd dda9 66bf
00000230: 406d 53bf 67d9 37bf 24c2 6bbf 3d35 03bf
00000240: cd96 93bf ce0e 47bf f904 57bf c84c 50bf
00000250: d495 63bf 7bbb f1be 6eae 42bf a520 943e
00000260: c26c f8bd d772 b7bd 33e1 61bf 77ff 93bf
00000270: d744 0fbf dedb 81bf fe3f 4abf d4b3 2bbf
00000280: 0b76 58bf ac77 62bf e428 0cbf a6e1 3dbf
00000290: 08b6 4dbf f20a edbe dc73 7dbf eea6 243f
000002a0: 2dd9 23bf de21 25bf 0da4 7cbf 5de9 35bf
000002b0: f52b 3dbf 5d67 36bf 9637 37bf fc53 56bf
000002c0: b9ce 41bf fc8e 09bf 4307 e1be 3c79 55bf
000002d0: 15b1 92be 62fd 1bbf 45ab 33bf 3470 32bf
000002e0: 62dd f1be 1b02 17bf 8f69 bebe 3721 7ebf
000002f0: f50d 19bf 574e 4fbf a8e3 2abf 1786 27bf
00000300: c037 e6be 82aa 80be 31d0 9d3d 8b15 11bf
00000310: 2b84 13bf b84f 1fbf ba8c 5bbf 4a89 68bf
00000320: edcb 8fbf c0d9 7abf 05c4 3fbf cfe2 c4be
00000330: 3cf4 38bf a3f0 2fbf 2b01 39bf aede 4fbf
00000340: af8e 9fbe 1787 73bf 2c1f 89bf f949 77bf
00000350: 7356 47bf 9389 3ebd 2064 18be 515a 7bbf
00000360: e959 67bf 28da 64bf 686b 87bf 3524 fdbd
00000370: d031 a8bf 97c6 64bf 88cd 4cbf 559b 93bf
00000380: c275 57bf bbbb d2be 2740 82bf 4b56 27bf
00000390: 4fb5 40bf 0fc3 5bbf 6d0f 0bbf 0b73 55bf
000003a0: faaf 16bf 72e4 39bf cd3b 7bbf 0c49 42bf
000003b0: d718 f8be 8048 33bf aaec 92bf d184 3abe
000003c0: 6ec8 16bf 996c 49bf 72c9 29bf 12ec 56bf
000003d0: e138 13bf 969c 8ebe 209c 91be ddca 27bf
000003e0: 6dfd 22bf 7efd 19bf d8fd 3fbf 17ab d8be
000003f0: 105e d9be b6b5 2fbf 4277 66bf 54a1 43bf
-0.88926345 -0.6209422 -0.19040942 -0.9137661 -1.2393919 -1.2232196 -1.0916121 0.3159714
-0.9773447 -0.8954736 -0.43244907 -0.92387813 -0.46072578 -0.706455 -0.39492905 -1.0763499
-0.38998213 -0.59097 -0.73927885 -0.6612852 -1.0763347 -0.70513487 -0.32163355 -0.74540865
-0.8279508 -0.54234403 -0.66510016 -0.22468281 -0.17491004 -1.0395235 -0.7501013 -0.8060181
-0.6858768 -0.54035866 -0.64444155 -0.53680915 -0.74097586 -1.015867 0.046096176 -0.8890835
-0.54733604 -0.040179543 -0.5143151 -0.043194212 -0.5542754 -0.6262589 -0.8085387 -0.50076765
-0.5834693 -1.2098929 -1.0321231 -0.8838255 -0.3592504 -0.23603539 -0.22623958 -0.36116675
-1.123128 -1.0584161 -0.6934639 -0.8695886 -0.32590166 -0.84125036 -0.7401818 -0.5450634
-1.2212372 -0.64320755 -0.30984214 -1.0308088 -1.0054113 -0.97063285 -0.9903937 -0.65686953
-0.5496958 -0.83042544 -0.62640196 -0.7953815 -0.8665171 -0.8724516 -0.82155794 -0.4368883
-0.54429114 -0.798764 -0.4573483 -0.61433876 -0.23234783 -0.62890077 -0.9969333 -0.52692336
-0.53539044 -0.22736874 -0.8526634 -0.30655593 -0.95685077 -0.56840336 -0.37520793 -1.0319018
-0.78381306 -0.22420493 -0.3581116 -0.95250005 -0.33671153 -0.8626455 -0.4978942 -0.8342424
-0.68906456 -0.6135786 -0.73359144 -0.8853594 -1.1392599 -0.5829444 -0.94978666 -0.46091214
-0.8174042 -0.6201261 -0.15673766 -0.6337161 -0.71073467 -0.8489759 -0.9352365 -0.50434923
-0.6023887 -0.8129492 -0.9042813 -0.39571026 -1.0621223 -0.22254956 0.04364427 -0.28643107
-1.0131174 -1.1523087 -0.93871224 -0.8971239 -0.17819378 -0.85184115 -0.72582144 -0.6924699
-0.13528788 -0.8955858 -0.093820624 -0.9010294 -0.8258858 -0.71816105 -0.9209311 -0.5125311
-1.1530396 -0.77756965 -0.8399196 -0.8136716 -0.88900495 -0.4721335 -0.7604741 0.28931156
-0.12130119 -0.08957451 -0.8823425 -1.1562337 -0.55964416 -1.0145223 -0.79003894 -0.6707127
-0.8455512 -0.88463855 -0.54749894 -0.7417244 -0.8035588 -0.46297413 -0.9900491 0.64317214
-0.6400326 -0.645048 -0.9868782 -0.7105921 -0.738952 -0.7125147 -0.7156919 -0.837219
-0.7570606 -0.537338 -0.43950853 -0.83388114 -0.28650728 -0.60933506 -0.7018321 -0.6970246
-0.47239214 -0.5898759 -0.3718991 -0.9926943 -0.5978692 -0.8097891 -0.66753626 -0.6543898
-0.4496441 -0.25130087 0.07705725 -0.56673497 -0.5762355 -0.62231016 -0.85761607 -0.90834486
-1.1234108 -0.9798851 -0.7490848 -0.3845429 -0.7224767 -0.6872656 -0.7226741 -0.8119916
-0.31163546 -0.95128006 -1.0712638 -0.9659725 -0.77866286 -0.04651792 -0.14881945 -0.98184687
-0.90371567 -0.8939538 -1.0579653 -0.123604216 -1.3140202 -0.89365524 -0.80001116 -1.1531779
-0.8416406 -0.41158852 -1.0175828 -0.6536605 -0.75276655 -0.8584451 -0.5432041 -0.83378667
-0.5886227 -0.72614205 -0.98138124 -0.7589271 -0.4845645 -0.700325 -1.1478474 -0.18214728
-0.5889958 -0.7868133 -0.66323006 -0.83953965 -0.57508665 -0.2785384 -0.28439426 -0.6554392
-0.6366795 -0.60152423 -0.7499671 -0.4231803 -0.42454576 -0.68636644 -0.90025723 -0.7641804

fc2.weight f4 [300, 404]
00000000: 7a8f 3dbe a952 17bf eaec 973a b17a 203d
00000010: 86ee a53d f434 0abf 947e 083e 02fc 89be
00000020: 0621 e8be 38ce ad3d b0d4 dc3d 1bbc ee3d
00000030: 5bed 44be 0c80 c03d 2b17 4cbc 686b 20be
00000040: 49cc fe3d 37f9 803d 930f 2fbd 551d 8a3c
00000050: 9dd3 95be 6194 aabd fcc1 1cbf a7c0 893e
00000060: d7ef 133e e785 743e a86f 3d3d 2ac8 ee3d
00000070: fe3b 9e3c 3bdc 273d 2939 acbe d58a 643e
00000080: 369c 43be dac5 12be 764f 1e3e d807 b23d
00000090: a6ee 573e 39fe 55be 2d04 173d d8c9 83bd
000000a0: d03b a5be 9e5a 8cbe b44f 75be 917b 2dbf
000000b0: 97b7 64be da94 08be b70e cdbd 787c 233e
000000c0: cd9d 663e 6159 1bbd 22ec 99bd 1a69 84bd
000000d0: dde7 b03d 1a22 7bbd e929 4e3e 4366 56be
000000e0: d6c5 9bbe c7d1 15be 0fbb 163e 9c3b 53bd
000000f0: 1799 03bf 5def 6bbd 5f42 41bd ec7e 9abe
00000100: 8085 06be 83d1 a7bd 388c 38be 35db 1b3d
00000110: 8e1d 03bd 4e35 39be 89ce b83d 38c4 a33e
00000120: d830 093e 4561 26bd e7de 79be 3f4f fd3c
00000130: 43c5 0fbe be6e a5bc 865d 7c3d 81f4 a33d
00000140: 1c73 c3bd eedc 263d be45 dabd f2cd 6f3e
00000150: e0fc 1e3e 7904 873d d9ef 31be 06c6 89be
00000160: 1979 aa3d 40f0 0ebe 5721 223e 88cd 98be
00000170: f2ec a63d 5215 e83e 1364 d7bf c803 e03d
00000180: bea8 94be 0994 1dbe e610 c3bc 4f9f adbe
00000190: 0105 04bf e63b 78bd 6e52 01bf 6d02 d43d
000001a0: 8c8e d03e 3006 643d b1cd 78be a2b8 573e
000001b0: be6a a3be 9799 7cbd 137e 98be 8e4c 0fbe
000001c0: 6a29 683e 0686 713d db31 d6bd 347c b03c
000001d0: ef13 9a3c 1dc5 cebd 8c48 4e3e 1c16 2dbe
000001e0: 1f75 8bbc 0098 81bd 1248 063c 127d 523d
000001f0: a1c7 093f 4776 a7bd c074 c73c 7d9c d03d
00000200: 6025 7dbe 72da 5fbd 4747 13be 7602 843e
00000210: ed38 aa3e a293 cf3d b042 1d3e be54 3bbe
00000220: cc91 2abd b154 bebd 66a0 98be ba7e 1cbd
00000230: 39b1 d7bd 2357 04be 9f09 43bd 4d01 7dbe
00000240: 00b3 18be 2370 febe fe2f 86bc 84e9 f23d
00000250: e857 dabe b0b2 0a3d fd98 6fbe e972 babe
00000260: 0caf 60be 8c92 fe3d 4e9f d2bd dcb4 96bd
00000270: e1cc 9ebc 912a bdbe fb92 ebbe 38f5 87be
00000280: ffb0 2c3e 50a4 9abd 15e6 4f3d 38fe c5bd
00000290: db78 cabd 85cb b33e 2acd 6bbd 2c7d 553b
000002a0: 2e02 613e 6a87 6a3e 7483 e4bd 99d7 013d
000002b0: de25 cebd cac2 7bbf c051 8cbc c61e 03be
000002c0: e3fe 443d a108 923e 42ab 6abe 67cf a43d
000002d0: 2784 61bf 7225 293e eee8 98be 924b 5ebe
000002e0: 09ec d03d 4678 1abf 51ea b63e 36a7 b33d
000002f0: 0d87 0fbe 8e72 92bd 18da 483e ea1f 943e
00000300: ced6 debc 0ca6 cfbe 8cba bebe c855 d1bd
00000310: 9248 80be 9df7 67be 703e 383e 6720 7d3d
00000320: 1dac 303e 9d39 c3be 1fdf eebe 49c4 2c3e
00000330: 35bc 833e f0c0 88bd 71be 09bc d48b 253d
00000340: c2ba b1bd 93fa 16bd 1ef7 fcbd 7ee4 bcbc
00000350: 0cae 83bd 8531 62be 358b 53bd b1e4 ea3b
00000360: 6ee1 5abe f114 b2be 7798 45be 8e64 3b3d
00000370: 7af3 5dbd 1fd3 edbe a48b 71bd 3329 b83d
00000380: 6811 2e3e ad59 b8bd bda1 b53d 42c7 893d
00000390: 763d 903e eaed babe a635 93bd fc8e 8abe
000003a0: a713 133f 790c 83bc b374 943d 8abe 293d
000003b0: c96b debe 7fe9 01be 27ed d2bd f602 593e
000003c0: e48c 67bd ae59 cbbe a20b 7d3e 20fe 69be
000003d0: 307d 593e 92b5 97be c35e 8f3d c387 223e
000003e0: b5d1 bc3d 03bb f3bc 2210 6fbd 4ae4 9abe
000003f0: caa9 0fbf faf3 77bd 8530 a33e 3f81 a93e
-0.18511763 -0.59110504 0.0011590992 0.039179508 0.08102135 -0.5398705 0.13329536 -0.2695008
-0.45337695 0.08486599 0.107827544 0.11656972 -0.19231169 0.09399423 -0.012456696 -0.15665972
0.12441308 0.06297534 -0.042739462 0.01685969 -0.2926301 -0.08329082 -0.61233497 0.26904795
0.1444696 0.23879205 0.04624906 0.11659272 0.019315716 0.040981513 -0.3363736 0.22318585
-0.19102558 -0.14333287 0.1546 0.08692902 0.21087131 -0.2089776 0.036869217 -0.06434983
-0.32272196 -0.27412885 -0.23956186 -0.6776667 -0.22335659 -0.13338032 -0.10012572 0.1596545
0.22521134 -0.037927035 -0.07515742 -0.06465359 0.086379744 -0.06131182 0.20133175 -0.20937447
-0.30424374 -0.14630805 0.14719795 -0.05157052 -0.5140547 -0.05760132 -0.047182437 -0.3017496
-0.13136864 -0.08194258 -0.18022239 0.03805085 -0.032010607 -0.1808674 0.090237685 0.3198564
0.13397539 -0.040620107 -0.24401437 0.030921577 -0.14040093 -0.020194408 0.06161263 0.0800562
-0.0954344 0.04073804 -0.106578335 0.23418406 0.15526152 0.0659265 -0.17376651 -0.26908892
0.08323879 -0.13958836 0.1583303 -0.29844308 0.081506625 0.45328766 -1.6827415 0.10938221
-0.2903499 -0.15388502 -0.023811769 -0.33910605 -0.51570135 -0.060604 -0.505164 0.10352025
0.40733755 0.055669963 -0.24297215 0.21066526 -0.31917375 -0.061669912 -0.29783687 -0.13994047
0.22672048 0.058965705 -0.10458728 0.0215436 0.018808333 -0.1009619 0.20144862 -0.16902965
-0.017023621 -0.0632782 0.008195894 0.051388808 0.53820235 -0.081768565 0.024347663 0.10186098
-0.24721289 -0.054651685 -0.14382659 0.25783128 0.33246556 0.101355806 0.1535747 -0.18294045
-0.04164295 -0.09293497 -0.29809874 -0.038206793 -0.105318494 -0.12923865 -0.047616597 -0.24707527
-0.14912033 -0.4969493 -0.016380306 0.11860946 -0.42645192 0.033861816 -0.23398204 -0.36415794
-0.21941775 0.12430295 -0.10284291 -0.07358715 -0.019384803 -0.36946538 -0.46010575 -0.26554275
0.16864394 -0.07550871 0.050756533 -0.09667629 -0.098863326 0.3511621 -0.057568707 0.003257583
0.21973488 0.22903219 -0.11157885 0.03169975 -0.10065816 -0.983441 -0.017128825 -0.12804708
0.04809464 0.28522208 -0.22916892 0.08047371 -0.88092273 0.1651819 -0.2986521 -0.21708515
0.1020127 -0.6033977 0.35725644 0.08772127 -0.14016362 -0.07150756 0.19614446 0.28930598
-0.027202036 -0.4055637 -0.372517 -0.102214396 -0.25055367 -0.2265305 0.17992568 0.06179848
0.17253156 -0.38129893 -0.46654603 0.16871752 0.25729528 -0.06677425 -0.008407221 0.040416554
-0.08678199 -0.03686006 -0.12351821 -0.023058172 -0.06429681 -0.22089203 -0.05164643 0.0071683754
-0.21375057 -0.34781602 -0.19296442 0.045750193 -0.054187275 -0.46450135 -0.058971062 0.08992233
0.16998827 -0.09001479 0.0886874 0.067274585 0.2817189 -0.3650964 -0.07187967 -0.27062213
0.5745186 -0.015997158 0.07248821 0.041441478 -0.4344161 -0.12686728 -0.102991395 0.21192536
-0.05653085 -0.39716858 0.24711469 -0.22850847 0.21239161 -0.29630715 0.07000496 0.15872101
0.09219686 -0.02975226 -0.058364995 -0.30252296 -0.5611845 -0.06053541 0.31872955 0.3310642

fc2.bias f4 [300]
00000000: 02c5 d33e e23a 51bc 7d57 e5bd 6691 adbd
00000010: deb4 07bd 6fa6 d8bc 5179 3dbd a5cf d2bd
00000020: 346f 7a3c a1f4 e5bd eed9 dfbc ceca 453e
00000030: 65ee e1bd 319c 11bc 7804 9fbd 5ded 55bd
00000040: afd9 8fbc be40 b0bd a3a0 98bd 38bc 7cbd
00000050: 5911 4ab8 5baf 3cbd e635 3a3f f223 b4bd
00000060: f0ac b4bd b2ea 4cbd 80c2 a9bd 4b5c 1e3e
00000070: 178f 8d3b 1cf9 14bd 8e2e d2bc 9960 9bbd
00000080: 6c47 e1bd ebe3 9ebd 8656 c73d 8249 b8bd
00000090: 7c31 97bd ce48 47bd 1e58 7cbd 113e 11bd
000000a0: f605 f9bd a0be 64be cabe 83bc e942 25bd
000000b0: 0773 2dbd 117b dfbd b556 e2bd ef6b 08bd
000000c0: 31cc 93be 5196 a5bd 167f f2bc 68c8 93bd
000000d0: c73f 4c3f 096f f0bc c2d8 f2bc a30b 22bc
000000e0: 819c 1dbd f71b 913f 1c61 dabd 4a61 b73e
000000f0: b5ec 88bc 0f4e efbe c39e 93bd 97e1 34bd
00000100: 13ce 483f 8377 b1bc 970f 97bc be05 d6bd
00000110: 5b3e 88bd 789f 3bbd 9288 13bd cf2d 2dbd
00000120: 920d a7bd cfae 2cbc e911 a9bd 1522 58bd
00000130: bbde 393f 7ddf d1bd b9b5 1abd a313 70bd
00000140: 3ca8 aebd 711f 2a3a 0958 6bbd e151 b1bc
00000150: 8823 d2bd d186 9abd a33d febd c0e1 77bc
00000160: 6623 38bc ef73 afbd ab98 53bd 8b10 3abd
00000170: f037 9cbd fd8f d3bd 1f9d 87bd e7eb 3dbd
00000180: 6831 8ebc 62e2 5abd 84da acbd 24f4 263f
00000190: bc78 4ebd 6d32 01be 6bc1 95bd c6ab 26bc
000001a0: 8413 82bb 43ff 9bbe fd70 a4bd de92 ef3d
000001b0: 23a7 10bd c3de 92bd c1d4 80bc 8e00 a9bc
000001c0: 0e52 ccbd f354 44bd cd04 96bb c628 7ebd
000001d0: cb9c b8bd 3c09 14bb f14e 0639 9525 f1bb
000001e0: 168c a5bd af32 8abc aa62 293f 6c49 84bc
000001f0: e9f2 5abd 964d 8fbd 02a2 86bd 409e 17bd
00000200: 135d 93bc 3e8b d1bd ec80 bebd 16be 84bc
00000210: fc2a bebd cfb4 d4bd 79a1 bfbd 1d3a a2bd
00000220: 3d2f d1bd e897 19be 4c02 80bd cef9 a5bd
00000230: 35aa 11be 23ca 01bd 9f0a f9bd 050f 46bd
00000240: 10d5 12bd 99c0 69bd ca26 39bd 5978 4dbd
00000250: eeb5 abbd ee7c 71bd 9988 e2bd a6d1 2dbd
00000260: d549 5ebd f6de 9abd 82de 44bd 3d03 9abd
00000270: 2dc9 9ebd 122c d2bc 4e5f b0bd 2cfc 29bc
00000280: e108 743c 067f b9bd 333d 1bbd d7b3 ebbd
00000290: e580 99bd b2ca 28bd 07b8 ebbd 619f 0fbd
000002a0: ce43 c2bd 93cc a2bd 3a36 57bd 4e3f 73bd
000002b0: aa50 73bd 7fb5 e1bd 8eab a3bd 91a9 18bd
000002c0: eff0 a8bd c58c 84bd fb19 42bd 9a6b 59bd
000002d0: 8879 04be 2f4c 3dbd fa0c 71bd a080 94bd
000002e0: 4514 e5bd 18bd 043a b9cf 54bd 04eb b4bd
000002f0: 9934 56bd 26c4 53bd bc29 cebc e0ff f3bd
00000300: b337 70bc 20d1 0cbe 144f d0bd ae00 abbc
00000310: bb8e a7bd 6ab5 86bd 512a bdbd 127f 03bd
00000320: 230d c9bd 3ab8 abbc 0afc 32bd e05b a5bc
00000330: 2495 78bd a849 7abd 6def 46bc af42 28bd
00000340: fdc0 9cbd 87ac 38bd 4317 1abe b997 1ebc
00000350: 5dca 4a3c 5418 36bd d4db f8bd 4e39 c2bd
00000360: 22ca d0bd 9109 40bd cf33 51bd 9147 0abd
00000370: 24c6 b6bd e96e c1bd 6065 72bd c7c8 c2bd
00000380: 72d0 cebc 221e 9139 3804 00bd 01d0 42bd
00000390: 0515 78bd fb96 47bd 9449 f03a e169 ddbc
000003a0: 3184 a1bb 23eb 8cbd e344 21bd d477 b5bd
000003b0: 32f2 85bd b043 efbc 400a 5ebd e7ff d7bd
000003c0: 6d4f a7bd a075 51bd b8a9 413b 2c58 dfbb
000003d0: 0723 87bd dd27 afbd 80f8 d2bd 1531 99bc
000003e0: d341 6dbd 570e 9dbc 5fb5 b0bd 5c96 48bd
000003f0: 4873 70bc 7bd2 fbbc 5676 c3bd 6d07 263f
0.41361243 -0.012770386 -0.11198328 -0.08474998 -0.033131473 -0.02644655 -0.046258274 -0.10293511
0.015285302 -0.112283 -0.027325597 0.19315645 -0.11031798 -0.008887337 -0.07764524 -0.05222832
-0.017559854 -0.086060986 -0.07452514 -0.061702937 -4.817671e-05 -0.04606567 0.7273849 -0.087959185
-0.08822048 -0.05002851 -0.08289051 0.15464894 0.004320036 -0.03637038 -0.025656965 -0.07586784
-0.10999951 -0.07758316 0.097333 -0.089983955 -0.07382485 -0.048653416 -0.061607473 -0.03545958
-0.1215934 -0.22338343 -0.016082186 -0.040347014 -0.042346027 -0.10912145 -0.11051694 -0.03330606
-0.28866723 -0.08085311 -0.029601615 -0.07215959 0.79784817 -0.02934982 -0.029644374 -0.00989047
-0.038479332 1.1336659 -0.106630534 0.35816413 -0.016714433 -0.4673924 -0.07208016 -0.04416045
0.78439444 -0.021663433 -0.018440051 -0.10450314 -0.06652518 -0.045806378 -0.036018915 -0.042280015
-0.08156885 -0.0105397245 -0.08255369 -0.05276688 0.72605485 -0.10247705 -0.03777096 -0.058612477
-0.08528182 0.00064896705 -0.057457004 -0.021645488 -0.10260683 -0.075452454 -0.124141 -0.015129507
-0.011238908 -0.085670345 -0.051659267 -0.045425933 -0.07627857 -0.10330198 -0.06621765 -0.046367552
-0.017357543 -0.05343855 -0.08440116 0.6521628 -0.05040811 -0.12616892 -0.07312282 -0.01017279
-0.0039696116 -0.30468187 -0.08029363 0.116979346 -0.035315644 -0.07171395 -0.015726449 -0.020630147
-0.09976588 -0.047932576 -0.004578209 -0.062050603 -0.09014281 -0.0022588512 0.00012808644 -0.0073592165
-0.0808336 -0.016869871 0.66166174 -0.016148292 -0.053454313 -0.0699722 -0.06573869 -0.037016153
-0.017988717 -0.102316365 -0.09301934 -0.016203921 -0.09285542 -0.10386049 -0.0935697 -0.079212405
-0.10214088 -0.14999354 -0.06250438 -0.08104287 -0.14225085 -0.031686913 -0.12160229 -0.048354167
-0.035847723 -0.05706844 -0.045203008 -0.0501636 -0.0838431 -0.058957033 -0.1106121 -0.042436264
-0.05426963 -0.07562058 -0.048063762 -0.07520149 -0.07753215 -0.02565578 -0.08611928 -0.010375064
0.014894695 -0.09057431 -0.03790016 -0.11508911 -0.07495288 -0.04120893 -0.1150971 -0.035064105
-0.09485589 -0.07949176 -0.05254195 -0.059386544 -0.0594031 -0.11020946 -0.07991706 -0.037271086
-0.082490794 -0.06472162 -0.04738806 -0.053081132 -0.12936985 -0.046215232 -0.058850266 -0.07251096
-0.11185507 0.00050635776 -0.051955912 -0.08833888 -0.052296255 -0.051700734 -0.025166385 -0.11914039
-0.014661717 -0.1375165 -0.10171333 -0.020874348 -0.081815206 -0.06577571 -0.09236587 -0.032103606
-0.09816959 -0.02096187 -0.043697394 -0.020185411 -0.060689107 -0.0611054 -0.0121420445 -0.04107922
-0.07653997 -0.04508641 -0.15047936 -0.009679728 0.012377349 -0.044456795 -0.12151304 -0.09483586
-0.10194804 -0.046884123 -0.0510748 -0.033759657 -0.08924511 -0.094449826 -0.05917871 -0.095109515
-0.025245879 0.00027679006 -0.031254023 -0.04756165 -0.06056692 -0.04872797 0.0018332475 -0.027028026
-0.0049290885 -0.06880786 -0.039372336 -0.08860746 -0.06540336 -0.02920708 -0.054208994 -0.105468564
-0.08169446 -0.051137567 0.0029550623 -0.006815931 -0.06598478 -0.08552525 -0.10301304 -0.018700162
-0.057924103 -0.019171877 -0.08628344 -0.04897152 -0.014675923 -0.030740013 -0.09544055 0.6485508

fc3.weight f4 [1, 300]
00000000: 3ac7 0b3d 7697 083c 2db7 cdbb e270 963c
00000010: 3618 8a3c fd2e 1c3c d6be 4c3b dce5 023d
00000020: 59a4 32bb b2d4 233d 38f9 823c 1ae4 813c
00000030: 1f39 8abb 6ee1 a73c 05cb d9bc 06e7 d439
00000040: 698b 14bc fe15 913b d642 9cbc 3f6b b13c
00000050: 367b 00bc a4b1 6cb9 4702 533d cee2 123c
00000060: 2429 16bc 628f 9339 b116 573c 2521 053d
00000070: 1eee e23b 4609 fd3c 6fd5 de3c ee0a ecba
00000080: 3a89 df3c acc9 833b b3d4 013d 2f07 c4bc
00000090: dfac 9dbb 76dd 283c 6eb0 96bb be10 fbbc
000000a0: 6e0a af3c b5f8 b8bc abaf bdbc aa43 d53b
000000b0: d08d edba 72a3 bc3c 20a1 cdbb 6114 6338
000000c0: e617 0abd 4062 fa3a 5129 9fba b1c7 6ebb
000000d0: 36eb 353d 3b6c 9dbc 79f9 8d3c 0bc9 42bc
000000e0: 06c5 a43c 68d9 923d c209 b1bb 2ea7 f83c
000000f0: e433 e63c 8027 35bd bf78 df3b 92cb 4dbb
00000100: e0a2 2f3d 8836 8b3c fc28 27bb ca40 53bb
00000110: bbe2 483b 64db b33c 53bb b9bc cd38 763b
00000120: ede6 cc3c 3fe2 903c fa6b 45bc b3a7 edbc
00000130: cb95 833d 5b20 debc 453f e9ba 5e7b b43c
00000140: 23ec 043b adff 30b8 127e e3bc 5825 01bb
00000150: 7ff4 5abc 2616 993b ba9a 873a f4db 29bc
00000160: 7f09 65bc a469 053c ea88 e23b 732f d7bc
00000170: 5a4d b13c e055 8fbc fc10 a13b 7266 8bbb
00000180: da3e e1bc 1f33 bbbc a9e3 b9bc 55f8 6f3d
00000190: 3886 c43c 4fa6 153d e600 53bc cfc2 7cba
000001a0: 39ed 09bc 46c2 7bbc 48e7 573c 404c f53c
000001b0: ee00 593c 79be f43b b4d9 183c 1d00 ebbc
000001c0: cbd9 86bc 74ac 253c 8c4e bd3b 52bf d3bb
000001d0: ed82 3fbc fe4f 943c 80da 56bb 4ecc eeba
000001e0: aa58 3dbc ca28 e3bb 806e 5d3d d52c fa3b
000001f0: 731f 803c aebd 0ebc c56c 153c 663a d53b
00000200: ccba c63c 8e34 703c a9e7 81ba b5b5 ddbb
00000210: 4c7f b9bb 0574 733c f8e7 f9bc 49a2 a3bb
00000220: 9591 1abc 061e cb3b 7667 353c 2c3d ea3c
00000230: 90ab debb 69bc ab3b 7874 d43b a072 0b3c
00000240: bf30 8abb b4af bebc c3a5 053d 8561 98ba
00000250: 5b86 103b 8224 ed3c fa88 e2bc de39 1c3c
00000260: 4907 b9bc c134 733b b15a eebc 6a3e cb3c
00000270: fabc 28bc 7c2d ab3c 1691 26bc 2c7c 8cb8
00000280: c2aa 263d e220 ea3b fbb4 1e3d 8860 c3bc
00000290: 152f 6e3b b371 f73c 67f2 f33a 2c8c b73c
000002a0: db0f 4ebc 2f06 d5bb 6c55 243a 172f 71bc
000002b0: bce6 7d3b d2cd b13c 19a8 87bc ab72 07bd
000002c0: c815 eb3c f177 afbc db49 cebc af40 cbbc
000002d0: 7787 cebc f59d 17bb 588d ce3c 6557 523c
000002e0: 30cb a2bc e346 5a3a 324e c8bc 8c4f 8cbc
000002f0: 37b5 673c 9ec1 1cbd da42 3a3b 4b09 b5bc
00000300: 904f 5d3b 7266 10bc 98ec 2ebc a5f6 33bb
00000310: b2dd 893c 5862 0ebc 73af acbc 1d9b d5bc
00000320: d439 adbb bafe 62bc ae8d aa3b 7742 84bb
00000330: f725 f2ba ad9f 803a 46ca f3bc 4d90 a93b
00000340: 0cc9 2f3c 0812 d13c bd2d a3ba 0793 853b
00000350: c9f6 63bc b0e2 073b 3123 e7bc d1b8 c4bb
00000360: 5b10 fb3c ab03 3dbc 8189 ff3c 8f2b 89bc
00000370: b332 21bb 58ef b73c 78d4 d6ba 546a 333c
00000380: 4a4b e63b bd87 25bb c2df cf3c 53ff 77bc
00000390: 9ed4 ccbc f031 383b 077a 93bc ae4e d0bc
000003a0: 0e36 c0bb 08ec d1bc 49bb df3c 0213 e13c
000003b0: 08e2 b9bb 3b8a 98ba 3d0a 023b e9cc cd3b
000003c0: 853e b23c f107 113b b031 aa3b 4c5a b53b
000003d0: adc3 a43b b41e 023c 6bf3 91bc 33b5 6a3b
000003e0: 9494 e73a 5e3b d03c 424d c4bc 1ae7 3cbc
000003f0: 9f6a 8fbc 4848 7ebc ff86 00bd 3d86 383d
0.034125544 0.008336892 -0.00627794 0.018364374 0.016857248 0.009532687 0.0031241677 0.031957492
-0.0027258603 0.039997764 0.015987977 0.015855838 -0.004218235 0.020493235 -0.026586065 0.00040607917
-0.009066441 0.0044276705 -0.019074839 0.021657584 -0.007841876 -0.0002257289 0.051515844 0.008965207
-0.009165082 0.00028144853 0.013127969 0.032502312 0.0069253584 0.030888211 0.027201382 -0.0018008628
0.027287114 0.004021844 0.031696986 -0.023929207 -0.0048118676 0.010306707 -0.004598669 -0.030647632
0.021367278 -0.02257953 -0.023155054 0.0065083103 -0.0018123928 0.023027156 -0.006275311 5.4139997e-05
-0.033714198 0.0019102767 -0.001214305 -0.0036434943 0.044413768 -0.019216647 0.017330872 -0.011888753
0.02011348 0.07170373 -0.0054027746 0.030353155 0.028100915 -0.044227123 0.006819814 -0.0031401855
0.04287994 0.016993776 -0.0025506606 -0.0032234662 0.003065272 0.0219552 -0.022672331 0.0037570477
0.025012458 0.017686008 -0.012049669 -0.02901063 0.06425055 -0.027115038 -0.0017795345 0.022031482
0.002028235 -4.2199787e-05 -0.027770076 -0.0019706097 -0.0133639565 0.0046718298 0.0010345795 -0.010367382
-0.013979315 0.0081428625 0.006913294 -0.026267743 0.02164333 -0.017497003 0.004915355 -0.004254156
-0.02749579 -0.022851525 -0.022691565 0.058586437 0.023989782 0.036535557 -0.012878632 -0.0009642066
-0.008418375 -0.015366143 0.0131777 0.029943585 0.013244851 0.007468995 0.009329248 -0.028686577
-0.016461274 0.010111917 0.005777186 -0.006462016 -0.01168893 0.01810455 -0.0032784045 -0.0018218847
-0.011556784 -0.0069323527 0.05406046 0.007634739 0.015639996 -0.008712215 0.009120171 0.006507206
0.024258994 0.0146609675 -0.0009910959 -0.006766046 -0.005660927 0.014859204 -0.03050612 -0.004993711
-0.0094341235 0.0061986474 0.01107203 0.028593622 -0.006795354 0.005240966 0.0064836107 0.008511215
-0.004217237 -0.023277141 0.032628786 -0.0011625743 0.0022052738 0.028948072 -0.027653206 0.009535281
-0.022586482 0.0037110301 -0.02909598 0.024810035 -0.010298962 0.020895712 -0.010166427 -6.698849e-05
0.04069019 0.007145033 0.038746815 -0.02384974 0.003634398 0.030205583 0.001861167 0.022405706
-0.012577022 -0.0065009813 0.00062688324 -0.0147207 0.0038742265 0.021704588 -0.016559647 -0.03306834
0.02869691 -0.021419497 -0.025181701 -0.024811117 -0.025211079 -0.0023134921 0.025213882 0.012838219
-0.019872278 0.0008326603 -0.024451349 -0.017127775 0.014142326 -0.038270585 0.0028421194 -0.022099158
0.0033769347 -0.008813487 -0.0106765255 -0.0027460244 0.016829345 -0.008690439 -0.021079754 -0.02607494
-0.0052864347 -0.013854677 0.005204878 -0.0040362435 -0.0018474449 0.0009813212 -0.029759537 0.0051746727
0.010729086 0.025521293 -0.0012449544 0.004076365 -0.013913819 0.0020734482 -0.028215023 -0.006003477
0.030647447 -0.011536519 0.031193497 -0.016744403 -0.002459687 0.022452995 -0.0016390225 0.010950644
0.007028018 -0.0025257908 0.02537525 -0.015136558 -0.025003728 0.0028105937 -0.018002523 -0.025428142
-0.005865819 -0.025625244 0.027310984 0.027474884 -0.005672697 -0.0011637876 0.0019842528 0.0062805307
0.021758327 0.0022129978 0.0051939115 0.005534446 0.005028209 0.0079418905 -0.017816266 0.003581357
0.0017668181 0.025418933 -0.02396262 -0.011529708 -0.017506896 -0.015520163 -0.031378742 0.045049895
