project1_navigation/checkpoint.pth (torch_old, 28413 bytes, 6 tensors)

fc1.weight f4 [64, 37]
000000 98 0f 2a bf df 0a 21 3e 39 6d 86 3d 64 04 49 be
       -0.66430044 0.15726803 0.06563801 -0.19630581
000010 6f 59 50 bf 81 a8 50 bd 02 e0 68 3c 03 98 be 3d
       -0.81386465 -0.050941948 0.014213564 0.09306338
000020 39 33 7e 3d 5b 0c 0a 3c b8 b1 af bd c1 05 77 be
       0.06206057 0.008425797 -0.08578819 -0.24123289
000030 eb 2c 16 be 6b fb ed bd db 2f 7e 3d 31 0e 2f bf
       -0.14665572 -0.1162022 0.062057357 -0.6838103
000040 bf 3c 81 3e 60 f3 10 3d bb 8e 93 be 7a 10 08 bf
       0.25241658 0.03538835 -0.28819832 -0.5315014
000050 d8 be 75 bd 3b a8 b6 3c 78 a9 99 3d f0 7d b4 3d
       -0.059996456 0.022297015 0.07503027 0.08813083
000060 90 34 46 3e fd b0 09 be 53 d3 bd 3d 81 7e 78 bc
       0.19355989 -0.13446422 0.092688225 -0.01516688
000070 50 e2 15 be 95 98 90 bd 7d 21 22 be 82 1d 9d bc
       -0.14637113 -0.07060353 -0.15833087 -0.01917911
000080 43 d0 0b bd f1 08 8f bd 53 82 ea bd 32 0f d7 3c
       -0.03413416 -0.06984127 -0.114506386 0.026252363
000090 60 10 90 bb 62 a6 29 3e 0b 93 02 3e 58 e1 9f bd
       -0.0043964833 0.16567376 0.12751405 -0.07806653
0000a0 f1 04 06 3e 43 10 e4 bd 2e 33 ac 3d 5a 60 06 be
       0.13087822 -0.11135914 0.08408199 -0.13122693
0000b0 53 69 2e be 3c 80 4c be 1a 82 eb be 6a 73 47 3d
       -0.17032366 -0.19970793 -0.45997697 0.04869405
0000c0 0e ea b8 bd 17 cd 98 3d e1 e4 ec 3d 20 90 3e 3e
       -0.090290174 0.07460993 0.11567093 0.18609667
0000d0 6c f8 5a 3d dc d8 d9 3d 8b 1e d6 bb f0 cb 6c bd
       0.05345957 0.10637066 -0.0065344027 -0.057811677
0000e0 74 b0 29 bd 16 e8 e5 bd fa 0a 1a be 2c 3d d8 bc
       -0.041428044 -0.112259075 -0.1504325 -0.026396357
0000f0 95 e5 ac 3d 5f 23 01 3d 77 5d 87 3c 1e 29 aa 3d
       0.08442227 0.031527873 0.01652406 0.08308624
000100 90 10 48 be ff 6f 9f bd d9 30 f0 be 1e 4c 42 3c
       -0.19537568 -0.077850334 -0.46912268 0.011858968
000110 a5 4e 13 3e 94 f5 4e 3e 04 71 95 bd 3c d1 1c 3e
       0.1438547 0.20210868 -0.07296947 0.15314192
000120 86 c3 09 3c 55 5d 64 3c fc 50 aa 3d dd b2 ac 3d
       0.008408433 0.013938268 0.08316228 0.08432553
000130 d4 f9 57 3e b4 41 ca 3c 20 73 f3 bc ab 75 d6 be
       0.21091396 0.024689533 -0.029717982 -0.4188665
000140 d2 ed 1f ba 3c af e9 3e 70 07 2d bc 4a 81 45 bf
       -0.00061008066 0.45641506 -0.010560855 -0.77150404
000150 75 5a 2d 3d ab 84 aa bd 2d 3a f3 3d f2 13 c9 3c
       0.042322595 -0.08326086 0.118763305 0.024545643
000160 e6 f1 77 3c b6 18 3d 3d 97 ac 33 3e 0d 1d 5f 3b
       0.015133357 0.046166144 0.17546307 0.0034044415
000170 bb 26 c8 bd 9d 91 27 bd f5 2f 86 bd 97 73 1f 3e
       -0.09773012 -0.040910352 -0.06552116 0.15571438
000180 74 c2 5b 3d db 35 87 bd 8a d5 15 be b2 71 96 3b
       0.05365224 -0.06602069 -0.1463224 0.0045911903
000190 59 d3 7f 3e 12 92 1e 3e ad 96 b9 be dc 32 02 bf
       0.24982966 0.15485409 -0.3624777 -0.50858855
0001a0 12 bc 82 be 14 8d 89 3d 08 17 3b 3d 72 ce 26 be
       -0.2553411 0.06716362 0.04567626 -0.1628969
0001b0 69 f2 f7 be 7e 59 52 bd c0 df 19 3c 70 f0 34 bd
       -0.48427132 -0.051354878 0.009391725 -0.04417461
0001c0 30 e3 e6 bd 0b ae 53 3e 2e b7 ab 3d b7 47 6f be
       -0.11273801 0.20671861 0.08384548 -0.23367201
0001d0 07 a7 45 be 99 9a e0 3d cd f4 7e 3d 0a 7d 07 3d
       -0.19301997 0.10966987 0.06224518 0.03307823
0001e0 9a 86 dd 3d 53 d7 78 3c b9 90 92 be 2b 86 be bb
       0.10816689 0.015188056 -0.2862604 -0.005814334
0001f0 55 b4 29 3d fb fe 8a bd 85 32 b6 bd d8 94 2b be
       0.041431744 -0.06786915 -0.088963546 -0.16755998
000200 17 4d e0 bd 4d df e9 bd 59 f0 d7 bd 0d d6 96 3d
       -0.10952204 -0.11419544 -0.105438896 0.07365046
000210 71 49 57 be 5b 6c 81 bd b3 67 15 3d 2f 7e 4a 3d
       -0.2102411 -0.06319495 0.03647585 0.049436744
000220 ad a8 3e 3d 76 a2 96 bd 57 ab 17 3d 14 30 8d 3d
       0.04654758 -0.07355206 0.037028637 0.06893936
000230 97 1f 18 3e ff cb 4c 3e 41 b5 92 bc cd 07 b4 bd
       0.148558 0.19999693 -0.017908694 -0.087905504
000240 4e 54 82 bd 55 f9 b6 be 29 f5 85 3e 94 a3 9a bc
       -0.06363736 -0.357371 0.26163605 -0.018876828
000250 d1 d9 8b be 64 78 91 be d0 d4 4d bd af da c4 bd
       -0.27314618 -0.28412163 -0.050251782 -0.09612023
000260 a6 92 35 3e f3 4a 41 be fb 95 b7 bd 4c 0d d2 3d
       0.17731723 -0.18876247 -0.089641534 0.102564424
000270 0a 78 ac be f4 f8 e1 be 6e 52 4e be 04 ca 89 be
       -0.33685333 -0.4413525 -0.20148632 -0.26911938
000280 d0 71 c8 bc c9 43 31 3c f5 90 0a bf 69 2c b0 be
       -0.024468333 0.010819384 -0.54127437 -0.34408882
000290 49 d3 5d be 5a e3 5e 3d 48 d4 46 bd ab 25 a3 3d
       -0.2166263 0.054416038 -0.04854229 0.07966169
0002a0 27 5f 8d be 63 82 66 bd 6c 87 14 3e e9 d0 60 bd
       -0.27611658 -0.05627669 0.14504784 -0.054886732
0002b0 11 86 1c 3e a3 01 6f 3d 66 f8 8a be 1a 07 8e 3d
       0.15285517 0.05835117 -0.27142638 0.06934948
0002c0 02 01 68 be 93 40 2e bf 9f ac 3b bd af 46 af be
       -0.22656634 -0.6806728 -0.04581892 -0.34233615
0002d0 3d c5 a5 3d e9 2c 82 ba 7e 5a 11 bf d5 75 c6 3c
       0.08094261 -0.0009931597 -0.56778705 0.024226109
0002e0 32 37 88 3c bd ab 47 bc f7 cd c9 bb 90 67 c5 3c
       0.016627882 -0.012186942 -0.006158586 0.024097234
0002f0 ba 03 1b 3d 9a a0 c9 3d bb 4b bb 3e 0f 1f b0 be
       0.03784535 0.098450854 0.36581215 -0.34398696
000300 ce 82 a8 be 42 74 1a bf 0c 3b ef bf 70 05 1a be
       -0.32912296 -0.60333645 -1.8689895 -0.15041137
000310 e0 7b a3 3d 03 e1 e9 3c 8e ce bb bb 95 f2 5f 3d
       0.07982612 0.028549677 -0.0057314103 0.054674704
000320 2f df 81 3d b8 d8 e0 3c 47 80 01 bb 3b f7 5d 3c
       0.06341397 0.02744709 -0.0019760297 0.013547714
000330 ec b5 07 bb 6e 49 79 3d 56 02 a9 3d 7d f9 2c 3e
       -0.00207078 0.060861044 0.08252399 0.16892047
000340 4d 82 03 3e af 52 86 3d 4a 51 c4 bc 25 38 77 bc
       0.12842675 0.065587394 -0.023964543 -0.0150890695
000350 b5 97 f1 3d fd 6b 93 3d f1 5a ea 3d 68 46 93 3d
       0.11796514 0.071983315 0.11443127 0.07191163
000360 7d d1 90 3c a6 a4 b2 bd 88 26 07 3d 00 99 77 bd
       0.017678017 -0.087228104 0.03299573 -0.060448647
000370 4c 73 63 3c 3e e0 be 3b 99 46 04 3d ec 54 f9 bc
       0.013882469 0.0058250716 0.03229389 -0.030436002
000380 47 28 02 be e2 f0 ed 3d 58 a0 22 be 28 cd e7 bc
       -0.12710677 0.116182104 -0.15881479 -0.028296068
000390 09 f9 97 3c e4 31 29 be e1 5c 67 3c c5 af f1 3d
       0.018551366 -0.16522938 0.014121265 0.118011035
0003a0 8b 76 0d 3e 03 88 8f bd fc b6 72 3d 7d a2 cb 3c
       0.13814752 -0.07008364 0.05925654 0.024857754
0003b0 99 ac c6 3d 71 00 ad be cb 59 77 3b f2 f3 f9 3d
       0.09700889 -0.337894 0.003774273 0.12204732
0003c0 7a cd 0c 3e d1 60 fb 3d 12 7e cf 3d 12 64 d8 bc
       0.13750258 0.12274326 0.10131468 -0.026414905
0003d0 99 40 f1 3c c3 9c f8 be 80 13 02 bc b2 cf d5 be
       0.029449748 -0.485571 -0.0079392195 -0.4176002
0003e0 45 8d 04 3c 9c 18 e7 3d 96 28 6c bc 10 a6 75 3d
       0.008090322 0.11283991 -0.014413973 0.059972823
0003f0 07 1b 8f 3e 15 5b 50 be 24 29 98 be 38 94 02 be
       0.27950308 -0.20347245 -0.29718888 -0.12751853

fc1.bias f4 [64]
000000 8b 91 f6 3d 0a ab 96 bc 5c 33 80 bd 65 d6 bd bd
       0.12039479 -0.018392105 -0.06259796 -0.09269408
000010 af 7b 82 3d 44 70 09 3d 57 fc bb bd 1d e1 52 3d
       0.06371247 0.03355433 -0.091789894 0.051484216
000020 64 2c 83 bd 61 8b 2b be f4 6e 09 3e b8 5a 08 3e
       -0.06404951 -0.16752388 0.13421232 0.13315856
000030 8d ef 11 3e ea 7a 00 3e 90 02 93 bd 1a 65 7c bd
       0.14251538 0.12546888 -0.07178223 -0.061619855
000040 fe 54 8b ba c1 52 35 3d f3 d9 26 bc 5b b4 4d be
       -0.0010630188 0.044268373 -0.010183799 -0.20088331
000050 e9 bc de bd dc c7 9a 3d e6 87 73 3d c9 17 18 bd
       -0.108758755 0.075576514 0.059455775 -0.03713206
000060 62 f9 59 be 90 7b 31 3e ec c9 93 3c 5d dd 99 bd
       -0.21286538 0.17332292 0.01804062 -0.07512925
000070 2d 94 6d 3e b1 9e e6 3d 49 02 83 bd 84 60 47 be
       0.23201056 0.11260737 -0.0639692 -0.19470412
000080 51 12 28 3e d1 9a a6 bd 64 e0 68 bd 57 39 c1 3c
       0.16413237 -0.08134998 -0.05685462 0.023586912
000090 ab 69 e0 3b 16 04 96 3c af 89 c2 bd 12 1f 1e be
       0.006848534 0.018312495 -0.09498917 -0.1544154
0000a0 15 c6 95 bd 2c a1 b3 bd 9d 1f 04 be c6 75 5d 3e
       -0.07313172 -0.087709755 -0.12902685 0.21626958
0000b0 56 cc 75 bd 01 32 db bd ef f6 84 bc 71 ba 67 be
       -0.060009323 -0.10702897 -0.016231028 -0.22629716
0000c0 de a3 04 be df ea b3 3c e7 98 28 be a1 78 a6 3d
       -0.12953135 0.021962581 -0.16464578 0.08128477
0000d0 ca c4 4c bc 3c ad 0c be ea eb 29 be 7f 68 4c 3d
       -0.01249809 -0.13737959 -0.165939 0.049904343
0000e0 0c 12 a5 3d c8 8d 9b bd 30 f8 01 be 90 19 00 be
       0.08060083 -0.07595402 -0.12692332 -0.12509751
0000f0 c3 5e 9e bc 90 12 49 3d b9 17 d2 3c 4a 4f 96 3d
       -0.019332295 0.04908997 0.025646077 0.07339342

fc2.weight f4 [64, 64]
000000 ed 01 a4 be 1d 1f c3 3d cd 05 28 bd 3c 65 dd 3d
       -0.3203272 0.09527419 -0.041021157 0.108103245
000010 86 96 12 3e 5b 1d b5 be e7 80 d3 3d 0e 08 af bd
       0.14315233 -0.3537396 0.103273205 -0.08546458
000020 5f 7e c2 3d 2b 5d 2b bd 23 96 cd bd 99 55 db 3c
       0.094967596 -0.0418369 -0.10038402 0.026774215
000030 12 d7 a9 bd 9b 9c 8e bd 3c 04 da bd 31 12 af be
       -0.082929745 -0.06963464 -0.10645339 -0.34193566
000040 b2 b1 bc bd 46 2d 6c be d9 e0 0f bd 14 51 07 3e
       -0.0921358 -0.23064145 -0.03512654 0.13214523
000050 7b b5 ce bd 50 e2 39 3e ee 81 db 3d ff a6 3e be
       -0.100932084 0.18152738 0.107181415 -0.18618391
000060 7e 0f a5 bc 55 6d 56 be 63 98 04 3f 0e 3b 55 3e
       -0.020148989 -0.20940144 0.51795024 0.20823309
000070 00 2a 5d be 9a c6 b5 bd 7f c6 c8 3d 02 ad a5 be
       -0.21598053 -0.08875771 0.09803485 -0.32358557
000080 28 b4 9b 3e 3f 63 b0 bd ce dc fa 3d 59 b4 4c 3d
       0.30410886 -0.0861268 0.122491464 0.04997668
000090 64 b8 cc be ac de b4 3d 88 36 2c be b3 5f 89 bd
       -0.3998443 0.08831534 -0.16817677 -0.06707706
0000a0 c1 2a a2 be 16 84 83 3e 01 65 3d 3e 3d a6 6b 3c
       -0.31673244 0.2568671 0.18495561 0.014382896
0000b0 38 7e 1a 3c 00 1d 1b be fe 29 82 bd 87 06 f1 3c
       0.009429507 -0.15147781 -0.063556656 0.029422058
0000c0 e6 de fd bd ce 3d ff 3b 3d 18 0f 3e 86 b9 38 be
       -0.1239603 0.00778935 0.1397409 -0.18039522
0000d0 5f ba 3a 3c bd 89 de be d9 5a c9 3c 43 a6 b6 bd
       0.011396973 -0.4346446 0.024579452 -0.08918431
0000e0 26 c7 23 3e 29 d9 3b be 82 72 7d be c1 79 2a be
       0.15993938 -0.18344559 -0.24750713 -0.16648008
0000f0 52 9a 41 3e e5 d4 15 3e f0 5a fa 3d e1 bc c2 3d
       0.18906525 0.14631994 0.12224376 0.09508682
000100 a6 72 9b bc 8e 0c 10 3e 50 e3 56 be 5a 35 23 bd
       -0.018975567 0.14067289 -0.2098515 -0.039845802
000110 c8 e3 16 3e 43 48 36 3e 90 1b 9d bc df 90 f8 3b
       0.14735329 0.17801003 -0.019178182 0.0075856294
000120 e3 71 c1 bd c1 77 1c be 44 3f f5 bd eb c0 09 3e
       -0.0944555 -0.15280057 -0.119749576 0.13452499
000130 18 27 c7 bd 44 77 4d 3e e0 b2 ab bd 4a 50 a9 3d
       -0.097242534 0.20065027 -0.08383727 0.08267267
000140 af e0 0e 3e 57 13 32 3e e5 1c 84 bd 47 e9 42 3c
       0.13952897 0.1739019 -0.06450824 0.011896438
000150 57 a6 45 3d f2 ff 12 3d 8b 7c 14 3e 97 a8 4c bd
       0.048254337 0.03588862 0.14500634 -0.049965467
000160 bf 16 91 3d 3d 42 84 bd 7f 3a d3 bd 8e be ce bd
       0.070844166 -0.064579464 -0.103138916 -0.10094939
000170 44 bf a3 3e 84 f1 73 be 01 d3 b7 3d 4f ad ae 3d
       0.31981862 -0.238226 0.08975793 0.0852915
000180 9c 17 64 bd 6b 01 28 3e 6c 6a 74 bd 6b 61 4e bd
       -0.05568658 0.16406791 -0.059671804 -0.050385874
000190 b5 ee d9 3c f5 03 18 3e a0 bc 27 be 26 a8 fe bd
       0.026603082 0.1484526 -0.16380548 -0.124344155
0001a0 9d b2 19 bd 15 d2 59 3d 27 0e 85 3d 5f b3 99 bc
       -0.037523855 0.053178865 0.0649684 -0.018762289
0001b0 1a a0 85 be 1b 39 ce bd e2 c3 2b be 9e ab 02 3e
       -0.2609871 -0.10069486 -0.16773942 0.1276078
0001c0 89 4c 82 3d 84 19 11 be 90 2b 7b 3c d0 f4 51 3e
       0.06362254 -0.1416989 0.01533021 0.20503545
0001d0 d5 ca 39 bd e8 20 39 3e 54 ba ca 3d 1d 8e c6 bd
       -0.04535945 0.18078959 0.098988205 -0.09695075
0001e0 8e 2a eb bd 27 2b 45 bd d3 10 6c bd c5 05 17 be
       -0.11482726 -0.048136856 -0.057633232 -0.14748295
0001f0 ac de 80 be 3b c9 45 3d 98 37 ce 3c 0e 9b 62 bd
       -0.25169885 0.04828761 0.025172994 -0.055323653
000200 1f 21 a2 bc 10 9d fd bd f1 f3 10 be 89 bd 31 3d
       -0.019791184 -0.12383473 -0.14155556 0.043393645
000210 bf 7b eb bd 5a 2d c1 3d fa bb 7d be 62 b1 d7 3c
       -0.11498212 0.09432478 -0.24778739 0.0263297
000220 44 45 04 3e e5 46 b4 bd 88 ff fd 3d ff 32 9c bd
       0.12917048 -0.088025846 0.12402254 -0.07626914
000230 33 55 1a 3d 58 01 02 3e b8 16 c8 bd 94 79 e8 3d
       0.03767891 0.12695825 -0.09769958 0.11351314
000240 3f 87 0f be 34 20 bb 3d d5 fc e4 3d 7a 61 d9 bc
       -0.14016436 0.09137002 0.111810364 -0.026535738
000250 a5 e4 16 be 80 ae 84 3d 12 aa 19 3e cd 44 50 3e
       -0.14735658 0.06478596 0.15006283 0.20338745
000260 14 db 3c be 27 bb 9e 3e 5d ee 5f bd 96 cd aa bd
       -0.18442947 0.3100216 -0.05467068 -0.08339994
000270 01 34 41 3b 65 88 c4 3e 81 11 00 bf 29 34 d8 bd
       0.002948046 0.3838531 -0.5002671 -0.10556824
000280 58 a7 dc bd 77 7f 6e 3d 2c 62 14 be 2d 3f 7f 3c
       -0.10774106 0.05822703 -0.14490575 0.015579027
000290 b6 32 a0 3d e3 a2 b4 3c 94 71 6a 3e 63 4c 62 be
       0.07822172 0.022050327 0.22894889 -0.22099452
0002a0 ae 87 38 3e df 5e fd bc d2 08 0f 3c 27 a0 0c be
       0.18020508 -0.030929027 0.00873013 -0.13732968
0002b0 f5 d7 ad bc d4 26 25 3d 94 42 95 3c 62 96 63 bb
       -0.02122114 0.040320233 0.018220223 -0.0034727086
0002c0 53 69 53 3d 1b b3 ab bc f1 53 82 be 02 fb 9d 3d
       0.051614117 -0.020959428 -0.25454667 0.077138916
0002d0 b0 0c 33 be 74 6e 21 3e b0 2f 37 be cf 8e 62 3c
       -0.17485309 0.15764791 -0.17889285 0.013827994
0002e0 fb a5 c0 bd d2 1b 0b be 63 08 6c 3e d9 a8 01 bd
       -0.09406658 -0.13584831 0.23050074 -0.031655166
0002f0 75 27 9f bc 38 c3 3c bd 9b b5 e5 bc 3a 11 18 3e
       -0.019427994 -0.046084613 -0.028040698 0.14850321
000300 f8 92 98 bd 50 a0 87 bd b1 30 67 3e a4 7b a2 bd
       -0.07449907 -0.06622374 0.22577168 -0.07933739
000310 40 7b b0 bd c0 f1 76 3d fd 67 18 3e 8c e2 46 be
       -0.08617258 0.060289145 0.14883418 -0.19422358
000320 93 3f ab bd fd 45 e2 bd e0 3a 29 3d d4 33 3d 3e
       -0.08361735 -0.110485055 0.041315913 0.18476802
000330 34 28 e8 bd 77 90 5b 3d b5 3a 0f be 03 8b 66 3c
       -0.11335793 0.05360457 -0.13987239 0.014071229
000340 8e 83 d1 bd c8 95 28 3d bd 9b 77 3d ed 08 5e 3c
       -0.1023017 0.041158468 0.060451258 0.013551933
000350 fa 95 1a bd cf 4c 32 3e 59 83 ad bd 43 00 90 3e
       -0.037740685 0.17412113 -0.08472318 0.281252
000360 82 43 12 3e 96 e3 10 3d c5 1e 8c 3e a7 4e 85 3e
       0.14283565 0.035373293 0.27367225 0.2603657
000370 3e 38 d6 3d d5 66 ef bd 6b 0b cb 3c 00 a4 31 be
       0.10459946 -0.116895355 0.024785718 -0.17347717
000380 16 6a 34 3e c1 7f 51 3d 24 2e bb 3b f0 73 f2 3c
       0.17618594 0.051147226 0.0057122875 0.029596299
000390 a7 f0 5e be 2a fe d6 3d df 4f 61 3e 6f 6d 3e 3e
       -0.21771489 0.10497697 0.22003125 0.18596433
0003a0 03 18 95 3c d7 43 8f 3e 6b cc 20 3e 3e 0c 06 be
       0.018199926 0.27981445 0.1570298 -0.13090608
0003b0 28 1d 67 be 08 d5 a3 3b c4 b7 1d 3e b3 f7 92 3d
       -0.22569716 0.0049997605 0.15402132 0.07176151
0003c0 96 be 38 be f1 71 4b be 6a 01 67 3d 8b 3b 85 bd
       -0.18041453 -0.19867684 0.056397833 -0.065054975
0003d0 4e 9e 1b 3d c1 91 60 3e 4d be 0c 3e 1a 20 4d bd
       0.037992768 0.219306 0.13744469 -0.050079443
0003e0 9b 7c 97 bd cb 12 35 3b ac bc 44 3c 41 b9 09 3e
       -0.073968135 0.002762961 0.0120078735 0.13449575
0003f0 62 ff 6e be 6f dc 98 bc ce 85 7d be cc 63 2c 3e
       -0.23339608 -0.018659798 -0.24758074 0.16834944

fc2.bias f4 [64]
000000 8f 3e a9 3c d9 d3 10 bc ac 4c e5 3d d6 c1 9f bd
       0.020659713 -0.008839571 0.111962646 -0.07800643
000010 ca 57 ae 3e 56 92 13 be 78 e8 59 bd 75 43 1d 3e
       0.34051353 -0.14411291 -0.053200215 0.15357764
000020 5a 45 2e 3e 41 25 a9 3e af 98 4a be fd 93 8e 3e
       0.17018643 0.33036235 -0.19784807 0.2784728
000030 be b3 8a 3d cd 15 28 be 3b 51 e7 bd 7f 51 85 bd
       0.06772564 -0.16414566 -0.1129479 -0.06509685
000040 5d 37 7a 3d 3f a8 a9 3c b4 2d 68 bd 93 a8 72 3e
       0.061087955 0.020710109 -0.05668421 0.23697118
000050 17 b1 3f 3e b7 cd ce 3e f5 b3 dc bd 7a 94 1b bd
       0.18719898 0.40391323 -0.107765116 -0.037983395
000060 d3 83 2b be 0b 36 d7 bd e8 14 44 3d 74 fe fa bd
       -0.16749506 -0.10508355 0.0478715 -0.12255564
000070 8a 4f 0e bc 3d 66 a5 3b cd 5f c6 3d 92 3b b0 bd
       -0.008685956 0.005047588 0.09686241 -0.08605112
000080 09 a2 67 bd 60 6f 9f 3d 16 74 a2 3c c4 01 19 3c
       -0.056551013 0.07784915 0.019830745 0.0093388
000090 7d f2 c4 bd a6 cb 1b be a4 a9 9d 3e 5d 7d 49 3a
       -0.096165635 -0.15214404 0.30793488 0.0007686222
0000a0 88 d0 82 bd 1f 19 c5 3e 99 33 85 3e ee a0 dc bb
       -0.063874304 0.38495728 0.26015928 -0.0067330515
0000b0 f3 37 3c 3d 47 2d 09 be d4 ff 3c 3e 42 e2 6d 3d
       0.045951795 -0.13396178 0.18456966 0.058077104
0000c0 a4 04 86 3d 1c 15 17 be 10 0a 26 bd 0b 86 a5 3e
       0.06543854 -0.14754146 -0.04053694 0.3232883
0000d0 ed 1a b7 bd 5f d2 4e bd 6c 90 85 3e 24 56 43 bd
       -0.089406826 -0.050493594 0.26086748 -0.047689572
0000e0 c5 8b ee bd 13 27 09 be 25 34 6a 3d 2c 50 75 3d
       -0.11647753 -0.13393812 0.057178635 0.05989091
0000f0 d8 e1 a3 3c 8b 35 7b 3e 86 3f f0 3c 0a 0e 19 3c
       0.020005152 0.24532144 0.029327165 0.009341726

fc3.weight f4 [4, 64]
000000 22 f0 a8 3e 9c d7 43 3e 1a 17 cb 3d 34 a3 5c be
       0.32995707 0.19125217 0.09916516 -0.21546632
000010 d6 f1 75 3e 36 95 c3 be 02 e3 d0 3c a8 31 04 be
       0.24018034 -0.38199776 0.02549887 -0.12909567
000020 90 d1 cc 3e 5b 94 c6 3d 9e e7 ed bd 04 c4 59 3e
       0.40003633 0.09696265 -0.11616443 0.2126618
000030 9a 63 f3 3c c2 0f 1e 3d 06 6f 81 bd 23 9f 0f be
       0.02971058 0.038589247 -0.06320004 -0.1402555
000040 63 4c 8f 3e 2d cc 4c 3e e9 72 20 3d 8c b2 0e 3e
       0.27987966 0.19999762 0.039172087 0.13935298
000050 4f a5 31 3e bf c8 2d 3e 52 22 1a 3b d7 66 b5 3d
       0.17348216 0.1697111 0.0023518992 0.08857506
000060 46 71 bb be 31 dd 2a be af d6 90 be 9e 74 74 be
       -0.36609858 -0.1668594 -0.2828879 -0.23872611
000070 9b 3e fa 3d 2e 6d 3f 3e a4 03 fd bd 36 32 b6 3d
       0.12218972 0.18693992 -0.1235421 0.08896296
000080 30 a1 f7 3d 7f 28 44 3e 84 d7 b6 3d 41 51 0e bd
       0.12091291 0.19156073 0.08927825 -0.03474546
000090 9e 40 d1 3d 33 2e b0 bd 11 10 54 3d 25 1f bd 3e
       0.10217403 -0.08602562 0.051773135 0.36937824
0000a0 39 33 f7 3d fb b5 08 3e a6 03 06 3e 80 5f 8c 3d
       0.12070317 0.1335067 0.1308733 0.06854153
0000b0 58 4d 9d 3d f0 18 9c be a7 bc 29 3e 6f 63 b7 3e
       0.07680768 -0.30487776 0.16575871 0.3581805
0000c0 11 68 b7 bc b2 1b 85 3d 88 cc a3 3e 36 fb aa 3e
       -0.02238849 0.06499423 0.31991982 0.33394784
0000d0 3d ef fb 3c 0a 68 d6 3d af d2 04 3e c3 6c 4d 3d
       0.030753726 0.104690626 0.12970994 0.05015255
0000e0 c2 44 a2 be 5b 0c 5e bd 18 28 1e 3e 94 ed 3a 3e
       -0.31693083 -0.054211 0.15444982 0.18254691
0000f0 ab bd 2b 3e 0c f6 37 3e 65 51 53 bd 7f 89 3f 3e
       0.16771571 0.17964953 -0.051591296 0.18704794
000100 f3 38 d9 3e 41 95 46 3e 05 e8 9f 3d 20 3e fe bd
       0.4242626 0.19392873 0.07807926 -0.12414193
000110 7f 28 44 3e 3f 6e 84 bd 97 8c fa 3d 41 41 2a bd
       0.19156073 -0.0646634 0.12233847 -0.041566137
000120 36 6d 33 3e 6e 23 fa 3d af 98 22 bc f1 fe 38 3e
       0.1752213 0.12213789 -0.009924098 0.18066002
000130 c6 db eb 3c d1 1a 65 3d e5 2c eb bc 23 cf 3d 3d
       0.02879132 0.055933777 -0.02870793 0.04634012
000140 57 6c 85 3e 19 4b 74 3e b3 53 f4 bd e5 ca e0 3d
       0.2605922 0.23856772 -0.11930027 0.10976199
000150 9d 97 88 3e 1a 54 5b 3e bb ce 88 3c 46 cb 20 3e
       0.26678172 0.21418801 0.01670014 0.15702543
000160 82 b5 a0 be fc 6a 25 be b2 54 27 be 77 2c 31 3e
       -0.3138848 -0.16154093 -0.16340902 0.17302118
000170 8f 7e 0a 3e 35 c5 97 3e a1 d5 a5 3d 3e bd 24 3e
       0.13524841 0.29642645 0.08097387 0.16087815
000180 0d b6 90 3d c8 55 26 3e 42 fa 2e 3e d2 b5 9d be
       0.070659734 0.1624366 0.17087653 -0.3080278
000190 09 f0 a4 3e 6b b9 db be dc 72 1f 3e c5 ba bc 3e
       0.32214382 -0.429149 0.15571159 0.36861244
0001a0 ae 5e bc 3e 56 3a 11 3e 7c bd a4 3d 83 8d 54 3e
       0.36790985 0.1418241 0.08043954 0.20757107
0001b0 52 0b 07 be 0b 3e f3 bd ca bb 18 3e 3f 7f ab 3e
       -0.13187912 -0.11877068 0.14915386 0.3349552
0001c0 0c 30 9c bc 12 5a 61 3e d6 7b 4e 3e 7f 82 42 3e
       -0.01906588 0.22007015 0.20164427 0.18995093
0001d0 a7 db 2a 3e c0 3d 4a 3e fb f0 dd 3d de cf ba 3d
       0.16685353 0.19750118 0.10836979 0.09121679
0001e0 b8 65 48 be 15 dd c8 bd ba 73 bb 3d e2 f0 21 bd
       -0.19570053 -0.09807793 0.091529325 -0.039536364
0001f0 f2 16 2c be a7 df 0d 3d 07 1a 29 3d e3 35 04 3e
       -0.16805628 0.03463712 0.041284587 0.12911181
000200 16 65 6a 3e a8 23 2d 3e 4b ca 5f 3e a4 5a d6 bd
       0.22890124 0.16908133 0.21854512 -0.10466507
000210 40 44 c8 3e c0 17 bc be d9 fe ad 3e 72 dc 07 3e
       0.3911457 -0.3673687 0.33983496 0.13267687
000220 fa 7b 12 3e fa 32 db 3d 35 4b 92 be 1e b1 84 3e
       0.14305106 0.107030824 -0.28573003 0.2591638
000230 e4 f7 11 3e 82 6b 30 be 52 1d e2 bc 0b 02 26 bd
       0.14254719 -0.17228511 -0.027601872 -0.040529292
000240 05 1d 3c 3e e8 94 5b 3d a3 26 81 be 85 dc 6e 3d
       0.18370445 0.053608805 -0.2522479 0.058315773
000250 c7 c1 3c 3e f1 7b 44 3e e9 28 1a bf d3 b4 24 3d
       0.18433295 0.19187905 -0.60218674 0.04021151
000260 ec fc b3 bd 3f c4 92 be 6c ea bc 3d 27 d6 ff be
       -0.087884754 -0.2866535 0.092244 -0.49968073
000270 46 8c 8f 3e 9f 2c ec 3e 8d e3 af 3d 8d 98 c7 3c
       0.28036708 0.46127793 0.08588324 0.024364734
000280 21 0d 5f be dc 72 ef 3b 0b bb 80 3e 5a 71 d2 3d
       -0.21782352 0.0073073935 0.25142702 0.10275526
000290 d5 73 c9 bd 85 c5 83 bd 22 56 8a 3e 1d 3b 43 3d
       -0.09836546 -0.06434158 0.2701884 0.047663797
0002a0 79 ca 16 3e 19 81 0c 3e c6 5e 27 3e 52 2f 07 3f
       0.14725675 0.13721122 0.16344747 0.5280658
0002b0 62 63 f1 3d 73 87 8c 3e 92 c7 c4 3d ab 20 23 3e
       0.11786534 0.2744709 0.096083775 0.1593043
0002c0 7e e0 82 be b8 c0 87 3d 3c 38 cb 3d 31 f8 ae 3e
       -0.255619 0.06628555 0.09922835 0.3417373
0002d0 02 aa 3c be 07 c6 9c 3e 10 36 14 3e 77 5f d4 3e
       -0.18424228 0.30619833 0.14473748 0.41479084
0002e0 b0 f8 84 be 9e 68 21 bd 1c bc 70 bd 6e 43 a9 3d
       -0.25970984 -0.03940641 -0.058773145 0.08264814
0002f0 a0 8e 96 be 72 8c 3b 3e ea 22 f8 be 03 14 9e 3b
       -0.2940569 0.18315294 -0.48464137 0.004824163
000300 e0 8a 04 3f 16 2e 27 3e 48 fc fe 3d 68 b4 95 be
       0.51774406 0.16326174 0.124504626 -0.29239202
000310 86 0b 85 3e f8 02 f6 bd a3 9b 51 be 41 64 e6 3d
       0.25985354 -0.12012285 -0.20469527 0.11249591
000320 ec 9a 85 3e ed 90 21 3e 7d f6 af 3d 00 e1 13 3e
       0.2609476 0.15777941 0.08591936 0.144413
000330 ec 2e 27 3e ba b8 35 be 5f 3a 4c 3d 98 78 02 be
       0.16326493 -0.17746249 0.049860355 -0.12741315
000340 5a ef 2d 3f 1a 18 d5 3d dc 9c c2 be 5b 46 44 3e
       0.67943347 0.10404988 -0.380103 0.19167463
000350 d0 01 b7 3e 3e 4a 3c 3e 16 b9 6e be fe 95 48 3e
       0.3574357 0.18387696 -0.23312792 0.19588467
000360 d7 be f2 bd 81 d4 98 bd 27 56 24 be bb 96 8d bd
       -0.11852806 -0.07462407 -0.1604849 -0.06913515
000370 65 a7 dc 3e 13 e2 e7 bd 84 d1 53 be 77 20 6e 3e
       0.43096462 -0.11322417 -0.20685393 0.23254572
000380 84 70 a6 3c 58 bb 87 3d ae 2a 11 3d cd a8 56 3e
       0.020317324 0.0662753 0.035441093 0.2096283
000390 14 fc d8 3e 2d 39 99 be 68 77 63 3e 3d cc e9 3d
       0.4237982 -0.29926434 0.22213519 0.114159085
0003a0 58 aa f2 be bb 3c 2f 3e 7c ec fd 3d ce c3 16 be
       -0.47395587 0.1711301 0.123986214 -0.14723131
0003b0 41 1c 73 3d ff c8 e9 be 93 66 a6 3d 19 86 4a 3e
       0.059353117 -0.4566116 0.08125033 0.19777717
0003c0 68 b9 58 3e a9 ed 12 be 03 d6 ac 3d 08 0c 77 3e
       0.21164477 -0.14348473 0.08439257 0.24125683
0003d0 10 75 fa 3c f1 8c 9f 3e 4e 09 97 3d b1 26 45 3e
       0.030573398 0.31162217 0.073748216 0.19253041
0003e0 ba b4 be bd c0 37 fc be b6 db a5 3d 5f cc 27 3d
       -0.093118146 -0.49261284 0.08098547 0.040966388
0003f0 55 b1 75 be 63 bb bd 3c 2b e9 ee be 4b 2a 08 3d
       -0.23993428 0.023160642 -0.46662268 0.03324346

fc3.bias f4 [4]
000000 9c dd 7b 3e 39 60 79 3e 8d 90 ca 3d de 2e 0f 3e
       0.24596256 0.24353112 0.09890852 0.13982722
