project3_multiagents_collab-compet/checkpoint_actor.pth (torch_old, 524603 bytes, 6 tensors)

fc1.weight f4 [400, 24]
0.02299396 0.027700018 0.019488102 0.009476997 -0.07880664 -0.07944491 -0.012940359 0.0594587
0.009843944 -0.018242445 -0.013823609 0.015714934 -0.021664023 0.024052558 -0.010829496 0.034353293
-0.032229844 -0.025805436 0.051037204 0.09212627 0.0018882299 0.013011349 0.006399068 0.024085259
0.07039755 0.053584423 0.035231248 -0.0026493436 0.0804677 0.02275533 0.063599005 0.043505453
0.069255635 0.1559488 -0.054013833 0.15942511 0.029966943 -0.080781616 -0.018378913 0.15015431
0.051253933 0.2261499 -0.029448152 0.13957971 -0.016456032 0.018679164 0.021149835 0.12021695
0.043819875 -0.00059195777 -0.015552945 -0.028585779 -0.034460623 -0.057456907 -0.001754232 -0.019194517
0.05137681 0.051839184 0.071862064 -0.03852989 0.107448176 -0.07363646 -0.006492466 -0.023515237
-0.02035376 0.041949514 -0.00070764514 0.042404793 0.24444099 -0.10768019 0.032568723 0.002737538
0.076155394 -0.099963 -0.028303698 -0.15554431 -0.102678455 -0.11354243 -0.021308264 -0.15125307
0.07339278 -0.11346375 -0.0422775 -0.06899276 0.0017339751 0.019479869 0.0022756131 -0.045805853
0.05765668 -0.21078674 0.060742036 0.053339805 0.04272684 0.0090933945 0.071630515 0.042244207
-0.047116704 0.098401956 0.056502715 -0.037136644 0.0327083 0.09868029 0.012192338 0.012512358
-0.044157248 0.049952656 -0.043356366 0.01322639 0.0919095 0.036878232 -0.047698583 -0.029449815
0.031041808 0.04687164 -0.052599162 0.0352604 0.09784177 0.097944885 -0.081074394 0.0060673705
0.106134325 -0.00600116 -0.037261873 -0.024440648 0.08196899 -0.023537388 -0.04180873 -0.08642769
0.10164464 -0.020325951 0.064113714 -0.012639679 0.06085095 0.028248308 0.018552244 -0.019212982
0.09271891 -0.0132075995 -0.03814841 -0.01603613 0.057425465 0.15004821 -0.030254204 -0.089153275
0.052253243 -0.093161784 0.018814452 -0.16633794 -0.019693928 -0.03319532 0.047539685 -0.10901695
0.058476496 -0.1927831 -0.059048273 0.047372885 0.010598961 0.034200184 -0.004652123 0.03307263
0.047689322 -0.17078611 0.032269776 0.071087025 0.033023216 -0.026894612 0.056250334 0.055919565
-0.06594859 0.07592238 0.040122937 0.030623477 2.209757e-05 -0.04616236 -0.020341674 -0.024799526
-0.07432232 0.08074981 -0.039501958 -0.068447545 -0.053281706 -0.07207143 -0.0008178291 0.027862044
-0.020364033 0.10402609 0.026063627 -0.016291298 0.015925605 -0.105591826 0.011561574 0.0013590599
0.010524168 0.17020272 0.056742307 -0.030642865 -0.04506996 0.10404968 0.050889365 -0.07336164
-0.08380416 0.17631423 -0.0012187085 0.0025043914 0.07893853 0.06683268 -0.011690148 0.01014697
-0.037226308 0.095825635 0.0044892402 -0.09420423 0.17392875 0.06345438 0.006904345 -0.066434436
-0.06223929 -0.07853617 0.037902176 0.0013998167 -0.031994577 -0.07893048 0.013834799 -0.035142876
-0.08001143 -0.11026275 -0.02655147 -0.09026541 -0.068415046 -0.068880364 -0.03376683 -0.072857976
-0.029532855 -0.049391396 0.06945783 -0.023516014 -0.044080414 -0.0961274 0.013869743 -0.0032811165
0.06319057 -0.010707108 0.0029141163 0.0006952352 -0.08888069 -0.037047185 -0.023939805 -0.055606514
-0.0070239846 -0.034128275 -0.0063322396 -0.057476755 -0.0070102885 0.136033 -0.049214434 -0.007962987
00000000: d45d bc3c 26eb e23c 83a5 9f3c 6845 1b3c
00000010: 6065 a1bd 03b4 a2bd cd03 54bc f78a 733d
00000020: 7e48 213c 2e71 95bc 6b7c 62bc 9bbc 803c
00000030: c078 b1bc df09 c53c 336e 31bc 0ab6 0c3d
00000040: 7103 04bd ec65 d3bc 630c 513d b3ac bc3d
00000050: 7b7e f73a 8e2d 553c 46af d13b 734e c53c
00000060: 972c 903d 577b 5b3d a44e 103d 9ca0 2dbb
00000070: 40cc a43d 6369 ba3c 3240 823d c632 323d
00000080: e6d5 8d3d 0bb1 1f3e 9c3d 5dbd 5640 233e
00000090: 3c7d f53c d570 a5bd 608f 96bc 0dc2 193e
000000a0: a5ef 513d d793 673e 403d f1bc fced 0e3e
000000b0: cdce 86bc 0c05 993c 6b42 ad3c 4e34 f63d
000000c0: 787c 333d 9d2d 1bba c8d1 7ebc b92c eabc
000000d0: 9526 0dbd ef57 6bbd 42ee e5ba d23d 9dbc
000000e0: 7d70 523d 5355 543d 6b2c 933d 85d1 1dbd
000000f0: ca0d dc3d b6ce 96bd c1be d4bb 07a3 c0bc
00000100: eebc a6bc 41d3 2b3d 4381 39ba a6b0 2d3d
00000110: bd4e 7a3e 6e87 dcbd c866 053d 4468 333b
00000120: 5cf7 9b3d 67b9 ccbd 28dd e7bc 0247 1fbe
00000130: 1549 d2bd ef88 e8bd ab8e aebc 16e2 1abe
00000140: f44e 963d af5f e8bd 2c2b 2dbd 134c 8dbd
00000150: 8d46 e33a 3f94 9f3c 7422 153b eb9e 3bbd
00000160: 6929 6c3d 7bd8 57be a4cc 783d d77a 5a3d
00000170: 5702 2f3d 76fc 143c 05b3 923d 4308 2d3d
00000180: 72fd 40bd f786 c93d 646f 673d 981c 18bd
00000190: 23f9 053d e418 ca3d 5fc2 473c a200 4d3c
000001a0: 3bde 34bd 289b 4c3d 7296 31bd 80b3 583c
000001b0: 0c3b bc3d a10d 173d 975f 43bd bd40 f1bc
000001c0: 644b fe3c 7afc 3f3d 3872 57bd 366d 103d
000001d0: 4461 c83d 5497 c83d 550a a6bd cbd0 c63b
000001e0: f45c d93d 61a5 c4bb e89f 18bd c137 c8bc
000001f0: 5cdf a73d 7bd1 c0bc a23f 2bbd 0001 b1bd
00000200: 112b d03d 9c82 a6bc 0d4e 833d a816 4fbc
00000210: d93e 793d ff68 e73c e0fa 973c 8b64 9dbc
00000220: 69e3 bd3d b064 58bc 8241 1cbd 345e 83bc
00000230: f736 6b3d 3da6 193e aad7 f7bc fe95 b6bd
00000240: 7f07 563d 9bcb bebd c420 9a3c 7e54 2abe
00000250: 2955 a1bc d1f7 07bd f9b8 423d 4744 dfbd
00000260: 0d85 6f3d ef68 45be 9adc 71bd 120a 423d
00000270: 44a7 2d3c 7e15 0c3d d670 98bb 2b77 073d
00000280: e155 433d 8ee2 2ebe 502d 043d 1396 913d
00000290: 5a43 073d 1752 dcbc c066 663d ea0b 653d
000002a0: 0e10 87bd 317d 9b3d f357 243d 16de fa3c
000002b0: 2c5e b937 be14 3dbd 95a3 a6bc 6028 cbbc
000002c0: 4d36 98bd 2860 a53d cecc 21bd 3a2e 8cbd
000002d0: eb3d 5abd 309a 93bd 9563 56ba f13e e43c
000002e0: 79d2 a6bc a10b d53d 6383 d53c 5475 85bc
000002f0: 6a76 823c 8740 d8bd c26c 3d3c 7c22 b23a
00000300: 8f6d 2c3c 9f49 2e3e 9f6a 683d bf06 fbbc
00000310: 479b 38bd 0018 d53d 5e71 503d a13e 96bd
00000320: 84a1 abbd b88b 343e 12bd 9fba b720 243b
00000330: 86aa a13d 92df 883d 0988 3fbc 7a3f 263c
00000340: 9d7a 18bd 3b40 c43d 7a1a 933b 26ee c0bd
00000350: 611a 323e 5ff4 813d d83d e23b c70e 88bd
00000360: a0ee 7ebd 92d7 a0bd 503f 1b3d 0e7a b73a
00000370: bf0c 03bd 4ea6 a1bd 5aab 623c faf1 0fbd
00000380: 08dd a3bd 70d1 e1bd 7882 d9bc 12dd b8bd
00000390: 301d 8cbd 2611 8dbd 164f 0abd 9036 95bd
000003a0: e3ee f1bc a24e 4abd e83f 8e3d a8a4 c0bc
000003b0: aa8d 34bd 71de c4bd eb3d 633c 0008 57bb
000003c0: 0f6a 813d de6c 2fbc c2fa 3e3b 7240 363a
000003d0: 1407 b6bd cabe 17bd 691d c4bc a8c3 63bd
000003e0: 7429 e6bb 17ca 0bbd ad7e cfbb bf6c 6bbd
000003f0: 90b6 e5bb 3c4c 0b3e 1395 49bd 3077 02bc

fc1.bias f4 [400]
0.17181435 0.016891258 -0.032302342 0.16636474 0.03032635 -0.03316547 -0.016744303 -0.09355533
-0.04971337 -0.13429312 0.0070083304 -0.22440346 0.010662229 0.04544351 0.05919754 -0.14977811
0.0411194 -0.13200974 -0.14855187 0.18671687 -0.1402443 0.18227857 -0.02021254 -0.093892284
-0.16216424 -0.22346453 -0.040882785 0.14984041 0.042628895 -0.14904098 0.1435706 0.12583187
0.11380607 0.22573406 0.1737489 -0.021403737 0.122808665 -0.13358995 -0.032022603 -0.108909726
0.01431741 -0.1574651 0.14254959 -0.1281456 0.068875745 0.18979324 0.045797255 0.075658284
0.24549165 -0.21289375 0.23739019 -0.14454362 0.14197828 0.06505185 -0.21214151 -0.038445365
-0.10325852 0.10316542 0.15154447 0.17174877 0.09682416 0.14331245 -0.20941862 0.117437586
0.07912316 0.07451627 0.08832741 0.021023551 0.15797503 -0.055629168 -0.105840914 -0.14561012
0.1895256 0.011888614 -0.10954233 0.08472365 0.010038966 -0.074334905 0.22200318 0.17275678
0.13581657 0.0037724325 -0.13963407 -0.13842636 0.021655198 -0.16540894 0.099031284 -0.18295538
-0.11014785 0.030351555 0.05354013 -0.008912775 -0.016828068 -0.12111011 -0.05972002 -0.05069047
-0.19208254 -0.033708997 0.0042160223 -0.032048564 0.1793817 -0.20109342 0.03763982 0.10275515
0.08485114 -0.024436165 0.062144402 -0.18905172 -0.070423774 0.01247074 -0.03779939 -0.19865172
0.06924437 0.1665338 -0.1554151 -0.025331683 -0.20952572 0.0066668536 0.040595397 0.17569447
0.15560779 0.1070292 0.047851276 -0.21294428 -0.06586777 0.18372667 0.07894737 -0.0027494351
-0.14416549 0.11549464 0.18429618 -0.006363503 -0.0042772293 0.17592417 0.14504565 0.1354052
0.1615653 0.081227526 0.124208584 -0.26127934 -0.045363143 -0.023359425 0.05780695 -0.111965664
-0.13144563 0.12524886 -0.111427374 -0.22508654 -0.081734 0.036764678 -0.00087035436 -0.13846889
0.02496002 0.109559074 0.24584088 -0.2014028 -0.022470597 -0.027942222 -0.09039188 0.020945124
0.21913785 -0.024007939 0.13370202 0.049654096 -0.114970125 -0.038655322 0.09191752 0.11466162
-0.040178258 0.024403794 -0.17411803 -0.11723703 -0.09817886 0.12968425 0.027418708 0.10688439
-0.15738831 0.018514238 -0.13023683 -0.14747381 0.13001013 0.01779081 -0.13794626 -0.21436916
-0.014119355 -0.08623055 -0.16697447 0.118561305 0.0011384491 -0.043462288 0.21768169 -0.1608374
0.07414918 0.13294873 0.03739383 0.10667887 -0.07316174 -0.17600155 0.18971822 -0.16724157
-0.12994424 0.14541185 -0.0859352 -0.09061611 -0.086483225 0.017415218 -0.10372842 0.026404707
0.17785491 -0.12717037 0.159077 -0.086448774 -0.27898794 0.04036486 -0.09373069 0.09643765
-0.010319504 -0.16206776 -0.13846853 0.060392596 -0.22478665 0.08861625 0.07363872 -0.2180971
0.12396601 -0.16317643 0.0059233443 -0.05493195 0.12713769 -0.1274765 -0.041746877 -0.0012187741
0.036750156 -0.007092918 -0.17175937 0.020678282 0.06575829 -0.049293827 0.016171176 0.098642595
0.1329217 0.040273998 -0.11439674 -0.13483363 0.13641734 0.036025327 0.042733636 0.04124972
-0.104090534 -0.18389398 -0.16477756 -0.15897843 0.12778348 0.12733206 -0.11152356 -0.03780665
00000000: 1af0 2f3e 895f 8a3c 764f 04bd 855b 2a3e
00000010: f76e f83c 84d8 07bd 592b 89bc f099 bfbd
00000020: 3fa0 4bbd 2384 09be 23a6 e53b 05ca 65be
00000030: a1b0 2e3c f922 3a3d 1f79 723d 6f5f 19be
00000040: d16c 283d 902d 07be fb1d 18be b532 3f3e
00000050: 349c 0fbe 3ca7 3a3e c594 a5bc 994a c0bd
00000060: 620e 26be e3d3 64be b574 27bd c46f 193e
00000070: a39b 2e3d 339e 18be 2c04 133e 12da 003e
00000080: 2813 e93d d426 673e 3beb 313e e456 afbc
00000090: 1c83 fb3d cecb 08be 222a 03bd 100c dfbd
000000a0: 9293 6a3c 883e 21be 85f8 113e 9a38 03be
000000b0: ba0e 8d3d 2959 423e e795 3b3d bbf2 9a3d
000000c0: 2a62 7b3e d200 5abe 6a16 733e 3e03 14be
000000d0: c162 113e e839 853d a03b 59be e378 1dbd
000000e0: 3479 d3bd 6448 d33d 792e 1b3e e9de 2f3e
000000f0: bf4b c63d 80c0 123e d671 56be 1e83 f03d
00000100: 530b a23d fc9b 983d 00e5 b43d 9539 ac3c
00000110: 35c4 213e 69db 63bd 1fc3 d8bd d21a 15be
00000120: 0013 423e 76c8 423c bb57 e0bd 9883 ad3d
00000130: 7a7a 243c e63c 98bd cd54 633e 27e7 303e
00000140: 8013 0b3e ea3a 773b 3cfc 0ebe a4bf 0dbe
00000150: 3e66 b13c f660 29be ead0 ca3d a858 3bbe
00000160: 3295 e1bd d3a3 f83c e54c 5b3d e306 12bc
00000170: 04db 89bc 9408 f8bd fb9c 74bd cfa0 4fbd
00000180: 49b1 44be 7212 0abd 8f26 8a3b 5b45 03bd
00000190: d6af 373e 6feb 4dbe 362c 1a3d 4b71 d23d
000001a0: 6fc6 ad3d 5a2e c8bc 218b 7e3d c696 41be
000001b0: 573a 90bd 1352 4c3c 88d3 1abd 5b6b 4bbe
000001c0: fecf 8d3d d687 2a3e 2325 1fbe 6484 cfbc
000001d0: e98d 56be 9f75 da3b 5c47 263d 40e9 333e
000001e0: a657 1f3e 2032 db3d b3ff 433d 110e 5abe
000001f0: aee5 86bd d822 3c3e 29af a13d de2f 34bb
00000200: 1ea0 13be 7488 ec3d 23b8 3c3e ef84 d0bb
00000210: 0028 8cbb 7725 343e d986 143e a9a7 0a3e
00000220: 6071 253e 9e5a a63d 1261 fe3d 68c6 85be
00000230: b4ce 39bd 445c bfbc fbc6 6c3d 414e e5bd
00000240: af99 06be 3d41 003e 0934 e4bd 167d 66be
00000250: 2864 a7bd 8f96 163d 7e28 64ba caca 0dbe
00000260: f578 cc3c 8260 e03d b6bd 7b3e 893c 4ebe
00000270: 4214 b8bc 16e7 e4bc 611f b9bd 1c95 ab3c
00000280: ac65 603e 4cac c4bc 2fe9 083e 1862 4b3d
00000290: 7575 ebbd 0b55 1ebd 413f bc3d b6d3 ea3d
000002a0: f591 24bd 77ea c73c ff4b 32be f819 f0bd
000002b0: 0012 c9bd f3cb 043e 339d e03c 34e6 da3d
000002c0: 672a 21be 2cab 973c ce5c 05be 6003 17be
000002d0: 6021 053e 08be 913c c941 0dbe 9783 5bbe
000002e0: de54 67bc a599 b0bd 5bfb 2abe 45d0 f23d
000002f0: 0338 953a 8305 32bd f3e7 5e3e 8fb2 24be
00000300: 86db 973d b623 083e 462a 193d 747a da3d
00000310: d3d5 95bd c039 34be 7e45 423e 6041 2bbe
00000320: 1a10 05be d8e6 143e cbfe afbd f094 b9bd
00000330: 1e1e b1bd 5caa 8e3c 916f d4bd af4e d83c
00000340: 991f 363e f338 02be 15e5 223e 0e0c b1bd
00000350: 82d7 8ebe a055 253d e0f5 bfbd 1a81 c53d
00000360: 2313 29bc 17f5 25be b2ca 0dbe 3a5e 773d
00000370: 792e 66be 707c b53d e6cf 963d d954 5fbe
00000380: e4e1 fd3d b917 27be 9d18 c23b 5300 61bd
00000390: 6230 023e 3389 02be c6fe 2abd 46bf 9fba
000003a0: 5587 163d b56b e8bb b0e1 2fbe 8065 a93c
000003b0: 48ac 863d 53e8 49bd 6a79 843c 2105 ca3d
000003c0: a01c 083e 59f6 243d d748 eabd d411 0abe
000003d0: fdb0 0b3e 4b8f 133d 7709 2f3d 77f5 283d
000003e0: 6b2d d5bd b44e 3cbe 73bb 28be 3ecb 22be
000003f0: acd9 023e 5663 023e 7766 e4bd 25db 1abd

fc2.weight f4 [300, 400]
0.023446819 0.0655335 -0.067615904 -0.1460302 0.08130181 0.091705374 -0.12214016 0.001743311
-0.029004624 -0.0070738895 -0.05956268 0.07374462 -0.12500067 0.06726648 -0.057672996 -0.043737642
0.033881832 0.093919106 -0.038951743 -0.031004189 0.010983812 0.11370972 0.055936627 -0.061313197
-0.0035780985 -0.012806907 0.056100674 0.07079935 -0.0045141755 -0.016549014 0.025776204 0.08092907
0.00232714 0.031632766 0.04292491 0.10471061 0.050332196 -0.065313965 -0.11584166 0.11573898
-0.022783672 0.03581722 0.04901088 0.041183047 0.009594168 -0.10464332 0.018441956 0.009522646
0.03520834 -0.014641125 0.12350605 0.005186769 -0.050949525 -0.035167735 0.03924373 -0.0034460116
-0.058212887 -0.010022418 0.01624194 0.005581732 -0.05745084 -0.045682073 -0.09757187 -0.029451739
0.0067517045 0.030278014 -0.11798382 -0.0465359 0.0025840276 -0.02330186 0.021413457 0.013301614
0.016734108 0.088278696 0.024872212 0.028376441 0.049137592 -0.011178635 -0.03180145 0.025720302
0.009894984 0.056997478 0.004459525 0.06510977 0.016532253 0.22737889 -0.033173073 -0.026619207
-0.022447413 -0.00552939 -0.002436827 0.029925236 0.047737103 -0.042708233 -0.094843656 0.061784357
-0.040993467 0.0015315317 0.0020282434 -0.00022014482 0.0071852026 -0.13353565 0.012228356 0.06586955
0.022399036 -0.12997471 -0.0007747802 -0.098742485 0.20968516 0.07789096 -0.073212124 -0.05262104
0.003506269 0.025657108 0.03284614 0.060176235 -0.011924346 -0.057525784 0.054308746 0.041576583
0.048745707 -0.020479282 0.0700636 0.039434753 0.06167252 0.063902624 -0.029695898 -0.04930756
-0.01863118 -0.118412174 0.0810598 -0.09167811 0.04224188 0.057741582 0.03170005 0.06739307
0.03493498 0.02048284 -0.0030159417 -0.006080952 0.032398343 -0.022398867 -0.06786433 0.01766524
-0.044347685 -0.044325203 0.0055753835 0.105063826 0.0892357 0.03366488 -0.043486163 -0.03599972
-0.0073285624 0.076135926 0.031948462 0.03685728 -0.020877974 0.040015217 0.00254452 -0.01426285
-0.03290712 -0.0014275758 -0.03823591 -0.008797145 0.007080258 -0.042474803 -0.081525214 -0.0047494713
0.053203676 -0.015230263 0.077412635 -0.010356036 0.037445277 0.04744623 -0.03212743 -0.07064666
0.0073874714 0.060305618 0.014947069 -0.09198004 0.04553388 0.02696366 0.040333487 0.04144219
0.016729476 0.0118281115 -0.11099694 0.039547205 0.0016139322 -0.007947586 0.05719301 0.018882966
0.08256309 -0.082969144 -0.055725094 -0.034072004 -0.059571322 -0.037481528 -0.039678104 0.05493075
-0.08317332 0.03735815 0.013730373 0.036265712 -0.029314203 -0.039404422 0.020312726 -0.06101448
-0.020183735 -0.0712521 0.1216232 -0.02465769 -0.090599686 0.05697199 0.012764082 0.018606255
0.05994392 -0.022140602 -0.021433663 0.0028274315 -0.030820739 -0.06728159 -0.033778004 0.0038983705
-0.029896947 0.022904504 -0.00053181744 0.016142981 0.043889683 -0.05119523 -0.015167513 -0.054996684
0.029552707 -0.07211167 -0.12990712 0.015417185 0.00696067 0.041685615 -0.08335831 0.06804741
-0.042001676 -0.024470668 -0.115236506 -0.008132414 -0.035748426 -0.0338597 0.014547672 -0.035780407
-0.057021078 0.04176039 -0.01387994 0.009835679 0.023800107 -0.15109089 -0.0009946214 0.045274086
00000000: 8b13 c03c 6d36 863d 357a 8abd f188 15be
00000010: 9081 a63d 07d0 bb3d 9f24 fabd cf7f e43a
00000020: 1b9b edbc 16cc e7bb fff7 73bd 6b07 973d
00000030: 2d00 00be 02c3 893d 853a 6cbd 3e26 33bd
00000040: adc7 0a3d a958 c03d dd8b 1fbd 7ffc fdbc
00000050: 72f5 333c a4e0 e83d ce1d 653d 8c23 7bbd
00000060: 887e 6abb 10d4 51bc d2c9 653d 40ff 903d
00000070: a6eb 93bb cc91 87bc 9e28 d33c 24be a53d
00000080: ee82 183b 5c91 013d 08d2 2f3d 8472 d63d
00000090: 2229 4e3d 54c3 85bd 643e edbd 8f08 ed3d
000000a0: d3a4 babc 14b5 123d a2bf 483d 8eaf 283d
000000b0: db30 1d3c 3d4f d6bd 9613 973c df04 1c3c
000000c0: 9f36 103d 54e1 6fbc bdf0 fc3d c6f5 a93b
000000d0: 73b0 50bd 0b0c 10bd 09be 203d 7bd6 61bb
000000e0: a370 6ebd 1135 24bc d10d 853c f6e6 b63b
000000f0: 9251 6bbd 201d 3bbd c3d3 c7bd c644 f1bc
00000100: 673d dd3b 9909 f83c 80a1 f1bd 6e9c 3ebd
00000110: ca58 293b 8be3 bebc 466b af3c 03ef 593c
00000120: f815 893c 76cb b43d cfc0 cb3c b675 e83c
00000130: 8044 493d 9826 37bc 3d42 02bd 62b3 d23c
00000140: 921e 223c 3076 693d 3521 923b 4558 853d
00000150: a66e 873c 03d6 683e 7de0 07bd 8610 dabc
00000160: a3e3 b7bc e32f b5bb 2cb3 1fbb c525 f53c
00000170: fb87 433d d4ee 2ebd 643d c2bd 9811 7d3d
00000180: c4e8 27bd adbd c83a 47ec 043b add6 66b9
00000190: d971 eb3b 92bd 08be 7159 483c 9de6 863d
000001a0: 2f7e b73c 1718 05be 9e1a 4bba 8039 cabd
000001b0: b5b7 563e 4c85 9f3d 3df0 95bd 2989 57bd
000001c0: 6fc9 653b db2e d23c ad89 063d 5b7b 763d
000001d0: 555e 43bc 28a0 6bbd d972 5e3d 354c 2a3d
000001e0: 94a9 473d 2bc4 a7bc 817d 8f3d 5686 213d
000001f0: 539c 7c3d 61df 823d d044 f3bc b9f6 49bd
00000200: 6ba0 98bc 1582 f2bd ae02 a63d bcc1 bbbd
00000210: d205 2d3d 7082 6c3d e9d7 013d 6105 8a3d
00000220: fb17 0f3d a1cb a73c 1ba7 45bb b942 c7bb
00000230: 20b4 043d d47d b7bc 74fc 8abd b2b6 903c
00000240: eba5 35bd 588e 35bd b5b1 b63b b42b d73d
00000250: 35c1 b63d 2fe4 093d 8c1e 32bd 7174 13bd
00000260: 7024 f0bb 27ed 9b3d 64dc 023d a9f7 163d
00000270: 4908 abbc ffe6 233d f6c1 263b bbae 69bc
00000280: 9ec9 06bd 7f1d bbba 429d 1cbd e721 10bc
00000290: 8201 e83b 0ffa 2dbd b1f6 a6bd 74a1 9bbb
000002a0: 19ec 593d 5a88 79bc 848a 9e3d 5dac 29bc
000002b0: 3860 193d fa56 423d 0d98 03bd 32af 90bd
000002c0: 9a12 f23b 0603 773d 8de4 743c 0860 bcbd
000002d0: bc81 3a3d e5e2 dc3c ba34 253d 49bf 293d
000002e0: 410c 893c b2ca 413c 5d52 e3bd 40fc 213d
000002f0: 948a d33a 9736 02bc 3843 6a3d 73b0 9a3c
00000300: d616 a93d baeb a9bd ff3f 64bd 168f 0bbd
00000310: 0f01 74bd 3b86 19bd 8285 22bd 11ff 603d
00000320: c656 aabd dc04 193d 5cf5 603c 5b8b 143d
00000330: 5724 f0bc 8866 21bd e066 a63c 52ea 79bd
00000340: 5c58 a5bc 9fec 91bd 9615 f93d edfe c9bc
00000350: 548c b9bd 765b 693d 7120 513c 256c 983c
00000360: c187 753d 3560 b5bc a695 afbc 6e4c 393b
00000370: c67b fcbc eeca 89bd ce5a 0abd ce7b 7f3b
00000380: 71ea f4bc 3aa2 bb3c aa69 0bba 493e 843c
00000390: abc5 333d 17b2 51bd 2981 78bc 3444 61bd
000003a0: 8518 f23c 49af 93bd 5f06 05be 5c98 7c3c
000003b0: 5516 e43b 89be 2a3d c3b7 aabd 715c 8b3d
000003c0: f309 2cbd b676 c8bc 1e01 ecbd d13d 05bc
000003d0: f16c 12bd 78b0 0abd 5c59 6e3c 7a8e 12bd
000003e0: ef8e 69bd f10c 2b3d b068 63bc d425 213c
000003f0: 71f8 c23c 92b7 1abe f55d 82ba 5271 393d

fc2.bias f4 [300]
0.008068015 0.036680374 0.046260446 0.038457673 0.023189293 0.0712823 0.008829646 -0.0046573845
0.017440239 -0.0016724502 0.051457126 0.03536877 0.02892059 0.020613695 0.04418933 -0.08133936
0.019354949 0.062169835 0.039542265 0.011631449 -0.022124905 -0.02666035 0.031311072 0.011783022
0.06757011 0.071202196 0.030508552 -0.03365756 -0.0040626107 0.07817714 0.07915984 0.013682323
0.067722626 0.038628217 0.011826193 0.05551573 -0.012393731 0.06564963 -0.026313568 -0.0038209553
-0.027390376 0.021050064 0.06167152 0.028485525 0.049376648 -0.004579842 -0.06610689 -0.011728865
0.037708145 0.026898392 0.011648613 0.055317923 -0.03013565 -0.039776355 -0.019208968 -0.035186134
-0.0006576529 0.08626542 0.010125789 -0.0055431216 0.044898316 0.03231964 -0.016990788 0.0025687371
-0.08101697 -0.0091994535 0.042178746 -0.013984537 0.05204656 0.055964876 0.051622536 -0.02119889
-0.0004584696 -0.013815022 0.05294272 0.051725756 -0.01199541 0.016876044 0.03969074 -0.03336135
-0.001698809 -0.0031136367 -0.030496873 -0.04493207 -0.047445875 -0.040345352 0.004383045 -0.03925865
-0.041968446 -0.011926717 -0.010822615 0.026406147 -0.007393878 -0.05413814 0.019941805 0.022936836
-0.0058624903 -0.028366672 -0.009137043 -0.024677133 -0.0670352 -0.055105656 -0.017377868 -0.035684638
0.0050987294 0.039762944 -0.025280027 -0.008758598 0.013400403 -0.03822263 0.060077313 0.065111525
0.020020401 0.024742361 0.043187037 -0.03147015 0.08260367 -0.0070385486 0.0077191573 -0.031004703
0.02885174 -0.0108778365 -0.04041002 0.028731463 -0.037634708 0.0010181624 -0.030820625 0.016037047
0.049691375 0.06662075 0.059217475 0.0027177585 -0.023136096 0.010133428 0.016480466 0.042758502
0.046393562 -0.016158184 0.0035137248 -0.054018572 0.05918315 0.06467479 0.014914662 0.029789967
-0.03204216 0.039968964 -0.0067944475 -0.008173968 -0.020182503 0.013341027 0.031862427 0.057854753
-0.030841079 0.005209232 -0.025037676 0.004029915 -0.058072533 -0.004056895 0.046158943 0.060349848
-0.02034872 0.029951636 0.020334214 0.0091726445 0.009890738 -0.041789792 0.020243656 -0.001632839
-0.010650484 0.030723762 0.061564755 -0.016169777 0.0065236376 0.040179737 0.016682608 0.037339497
0.04312302 0.05775235 -0.037755717 -0.017763853 0.019402442 0.048412528 0.070199914 0.06153343
-0.0029393155 0.061491054 -0.045899004 -0.027129374 0.06122233 -0.02296911 0.037962656 0.031568784
0.04339235 0.020456072 0.017793251 -0.00862555 -0.050089285 0.045058895 0.028910452 -0.012687366
0.035219215 0.09196253 0.041316066 0.070753306 -0.018261544 0.061420716 0.0052460227 -0.0038128397
-0.049093306 0.025282377 -0.03742235 0.08053968 -0.0149031095 -0.01421306 0.0020443597 0.07745869
-0.008409059 0.022454852 -0.016593952 -0.054340087 -0.009032884 0.0036452196 0.0030235425 0.026785504
-0.031671282 0.004602228 0.015103494 0.00030014254 0.029142758 -0.03418697 0.047875553 -0.000120164106
-0.043015808 0.06006348 0.021550486 0.064909294 -0.045536734 0.0121760415 0.0467759 0.034902807
-0.041358754 0.053984884 0.049982253 -0.03753375 0.014934715 -0.011539872 0.06242437 -0.0041223997
-0.0021401516 0.024243252 0.0043750056 -0.058105443 0.023701947 0.045245066 -0.0030072797 0.002824217
00000000: b52f 043c 293e 163d 987b 3d3d cb85 1d3d
00000010: 79f7 bd3c 74fc 913d 38aa 103c f99c 98bb
00000020: d5de 8e3c 1e36 dbba b5c4 523d d8de 103d
00000030: e0ea ec3c 0dde a83c dfff 343d 4095 a6bd
00000040: 458e 9e3c cca5 7e3d 12f7 213d d591 3e3c
00000050: 4a3f b5bc ce66 dabc 0a40 003d 940d 413c
00000060: 3362 8a3d 75d2 913d 12ed f93c 82dc 09bd
00000070: a61f 85bb 561b a03d 8e1e a23d d22b 603c
00000080: 29b2 8a3d 9f38 1e3d a6c2 413c 7664 633d
00000090: 130f 4bbc 5073 863d 8d8f d7bc fe68 7abb
000000a0: c861 e0bc 2f71 ac3c 479b 7c3d 7a5a e93c
000000b0: 2b3f 4a3d 8012 96bb 0d63 87bd 6d2a 40bc
000000c0: db73 1a3d 045a dc3c d3d9 3e3c 0c95 623d
000000d0: 0adf f6bc 88ec 22bd 205c 9dbc 561f 10bd
000000e0: 5766 2cba edab b03d a3e6 253c 13a3 b5bb
000000f0: 4ce7 373d 9961 043d 4430 8bbc 4258 283b
00000100: 3aec a5bd 4eb9 16bc 9fc3 2c3d 661f 65bc
00000110: c62e 553d 6d3b 653d 2772 533d 4ba9 adbc
00000120: c05e f0b9 6758 62bc 77da 583d 63de 533d
00000130: 6588 44bc a13f 8a3c c292 223d e9a5 08bd
00000140: 92aa deba 280e 4cbb 94d4 f9bc b10a 38bd
00000150: 9b56 42bd 2b41 25bd a59f 8f3b aecd 20bd
00000160: 1be7 2bbd 4768 43bc 5651 31bc b451 d83c
00000170: 5848 f2bb f4bf 5dbd ff5c a33c 08e6 bb3c
00000180: 221a c0bb 3961 e8bc 89b3 15bc b327 cabc
00000190: c049 89bd 78b6 61bd 085c 8ebc 0e2a 12bd
000001a0: 3e13 a73b 78de 223d 0f18 cfbc 3980 0fbc
000001b0: 5d8d 5b3c 558f 1cbd a113 763d 3159 853d
000001c0: d301 a43c 7eb0 ca3c e4e4 303d d8e6 00bd
000001d0: 1d2c a93d a0a3 e6bb fcf0 fc3b 93fd fdbc
000001e0: 7c5a ec3c f438 32bc fa84 25bd 3f5e eb3c
000001f0: da26 1abd dc73 853a 897b fcbc 2060 833c
00000200: 2f89 4b3d 7670 883d 068e 723d 6c1c 323b
00000210: e987 bdbc ad06 263c 0b02 873c 8a23 2f3d
00000220: 2d07 3e3d 2b5e 84bc 8546 663b 9442 5dbd
00000230: 086a 723d 3774 843d a05c 743c 170a f43c
00000240: a43e 03bd 7fb6 233d f5a3 debb 1bec 05bc
00000250: c755 a5bc 5394 5a3c 2d82 023d 1bf9 6c3d
00000260: 6ea6 fcbc 35b2 aa3b d01b cdbc 610d 843b
00000270: 77dd 6dbd b4ef 84bb 2911 3d3d 6731 773d
00000280: 5cb2 a6bc 225d f53c f093 a63c dc48 163c
00000290: c30c 223c c62b 2bbd 06d6 a53c fc04 d6ba
000002a0: 5e7f 2ebc 66b0 fb3c 532b 7c3d 7b76 84bc
000002b0: 3dc4 d53b 8293 243d f7a9 883c 4df1 183d
000002c0: c4a1 303d ba8d 6c3d bda5 1abd 8085 91bc
000002d0: dff1 9e3c 374c 463d f9c4 8f3d 7a0a 7c3d
000002e0: 88a1 40bb 0bde 7b3d 9800 3cbd 6c3e debc
000002f0: 44c4 7a3d b729 bcbc bb7e 1b3d 454e 013d
00000300: 2dbc 313d 7e93 a73c 27c3 913c 2e52 0dbc
00000310: 6c2a 4dbd ad8f 383d 9dd5 ec3c acde 4fbc
00000320: 0642 103d da56 bc3d 093b 293d 1ce7 903d
00000330: 3c99 95bc 4a94 7b3d d4e6 ab3b d6e0 79bb
00000340: 1016 49bd fd1c cf3c 2e48 19bd fdf1 a43d
00000350: 2c2c 74bc e5dd 68bc aafa 053b a9a2 9e3d
00000360: 26c6 09bc 3df3 b73c 0af0 87bc b693 5ebd
00000370: a9fe 13bc a3e4 6e3b a026 463b 466d db3c
00000380: bfb9 01bd 49ce 963b a574 773c 735c 9d39
00000390: cbbc ee3c a307 0cbd 2819 443d 9d00 fcb8
000003a0: 5831 30bd 2005 763d a58a b03c 2aef 843d
000003b0: ba84 3abd 057e 473c 1698 3f3d 3ff6 0e3d
000003c0: cc67 29bd 411f 5d3d 31ba 4c3d fdbc 19bd
000003d0: bcb0 743c bb11 3dbc b2b0 7f3d 3215 87bb
000003e0: c941 0cbb c999 c63c 355c 8f3b f9ff 6dbd
000003f0: 962a c23c e452 393d c815 45bb 8016 393b

fc3.weight f4 [2, 300]
-0.060252663 0.06770178 0.086870156 0.23031156 0.055115163 0.02731642 -0.020090343 0.16091913
-0.017050222 0.0050506 0.09834886 0.111169115 0.022488018 0.05374595 0.085775286 -0.056626804
0.088798486 0.10950244 0.18771693 -0.045563217 0.033763055 0.09765933 -0.038362104 0.026531402
0.020008672 0.0055490835 0.05462225 0.112001196 0.013137212 0.07785953 0.010300696 0.023188403
-0.028215902 0.028343821 0.082451485 0.13968603 -0.016781773 0.002450497 0.016958313 -0.02515241
-0.041741893 0.057843477 0.025415825 -0.011980016 0.030243315 -0.019663427 -0.14267369 -0.04768661
0.073345624 0.15161379 -0.024374116 0.013486948 0.118559554 0.026875636 -0.037605897 0.2582326
0.18616068 0.32701147 -0.007053399 -0.044891253 -0.041238032 0.006263161 -0.054592505 0.19374092
-0.07576717 0.05781792 0.03948998 -0.02318114 -0.02247111 0.12591872 0.03390385 0.0017375329
0.10472588 -0.012352109 -0.080066025 0.0785024 0.042752195 0.0039437176 0.023577709 -0.019483833
0.023264479 -0.064749114 0.1164566 0.024941698 -0.0753294 -0.075925834 0.07676427 -0.055033885
0.11298832 0.049156677 -0.20124468 -0.07396822 0.031331517 -0.033905514 -0.016753219 0.05265398
0.19156735 -0.060060196 0.02777148 -0.11057108 0.24915354 -0.029885592 -0.07469553 -0.00051988795
0.059084773 0.15493813 0.020685555 0.042776383 -0.017655687 0.0069077816 0.043441612 0.012879283
0.008637329 0.0021978621 -0.0025865736 -0.0047673383 0.009622191 -0.007904207 -0.009645871 -0.016500747
0.09299004 0.086098604 0.09943087 0.08444118 0.03824011 0.02196719 -0.006740011 -0.021519626
0.040324107 0.16418739 0.039644264 -0.01736728 -0.026785446 0.0396183 -0.061351545 0.054286696
0.09673951 0.055324495 -0.02355938 -0.0901442 0.037693385 -0.27412367 0.15620624 0.010878559
-0.066912614 -0.018024886 0.19961636 0.054257337 -0.009787046 -0.037303176 0.18333758 0.33192474
-0.0017430137 0.024594909 0.05101528 0.0002687393 -0.014064603 -0.06345046 0.076264694 0.05516602
0.03140195 0.016010033 -0.021138877 -0.0551864 -0.0018362319 -0.1000966 -0.06772413 -0.053036068
-0.12210369 -0.017714243 0.039368354 -0.03878725 0.053182222 0.013796803 -0.013213767 -0.01110925
-0.0072144545 0.0061026774 0.18532959 0.014073921 0.093964815 0.105880566 0.026109753 0.06066245
-0.012551741 0.120088235 -0.012634824 -0.02533309 0.05452132 0.23515996 -0.016616551 -0.021254286
-0.025592059 0.104493625 -0.0671876 0.04205015 -0.04374537 -0.015966348 0.014141065 -0.00838128
-0.013939148 0.22493 0.113748744 0.04937976 0.08335494 -0.0402495 -0.03127808 -0.032065414
-0.13246115 0.06505743 0.1397978 0.091973215 0.023501795 0.040093377 0.031671505 -0.02464103
-0.042233314 -0.094200544 -0.022326661 -0.018050117 -0.015319549 0.090337954 -0.040137805 -0.023976956
-0.12104567 0.12857872 0.0097104795 0.09035854 -0.04685835 -0.012005121 0.10204489 -0.03299628
-0.0046572075 -0.0377905 -0.059415065 0.12208589 0.03304586 0.018418936 0.08387022 -0.02443652
-0.048518468 0.03222966 0.0754744 -0.093332134 0.02987873 0.06412056 0.004759076 0.04295537
0.06653644 -0.032954756 -0.004055839 0.20676626 0.1220721 0.022667719 0.049606398 -0.060138218
00000000: 7fcb 76bd 3ba7 8a3d fbe8 b13d cbd6 6b3e
00000010: 70c0 613d afc6 df3c 8194 a4bc fcc7 243e
00000020: e8ac 8bbc 817f a53b 216b c93d a2ac e33d
00000030: cb38 b83c b724 5c3d f4aa af3d 82f1 67bd
00000040: fbdb b53d d142 e03d de38 403e 7fa0 3abd
00000050: 214b 0a3d 9d01 c83d 9521 1dbd 6258 d93c
00000060: 3ae9 a33c 16d5 b53b 95bb 5f3d e260 e53d
00000070: 763d 573c d174 9f3d 40c4 283c 9bf5 bd3c
00000080: 0925 e7bc 4d31 e83c 53dc a83d db09 0f3e
00000090: ee79 89bc 8498 203b 29ec 8a3c 6d0c cebc
000000a0: 8cf9 2abd 48ed 6c3d d934 d03c d447 44bc
000000b0: d4c0 f73c 3215 a1bc 0d19 12be 0953 43bd
000000c0: 3b36 963d a540 1b3e 3aac c7bc 5cf8 5c3c
000000d0: 5acf f23d 4b2a dc3c a408 1abd 1037 843e
000000e0: e8a0 3e3e 0c6e a73e 3320 e7bb e4df 37bd
000000f0: 36e9 28bd 343b cd3b 649c 5fbd 0564 463e
00000100: d12b 9bbd 7cd2 6c3d 3fc0 213d 60e6 bdbc
00000110: 5515 b8bc d6f0 003e c3de 0a3d eebd e33a
00000120: 867a d63d 8060 4abc a8f9 a3bd dec5 a03d
00000130: ed1c 2f3d 4d3a 813b 0a26 c13c 8f9c 9fbc
00000140: 2695 be3c 2f9b 84bd cc80 ee3d 8852 cc3c
00000150: 4d46 9abd 017f 9bbd 9636 9d3d 366b 61bd
00000160: 6c66 e73d 8358 493d 1613 4ebe a67c 97bd
00000170: 7a55 003d 82e0 0abd 0c3e 89bc b3ab 573d
00000180: 3b2a 443e ae01 76bd 0481 e33c 1773 e2bd
00000190: 1b22 7f3e a1d2 f4bc f8f9 98bd 1749 08ba
000001a0: e002 723d 1aa8 1e3e c174 a93c 4a36 2f3d
000001b0: a9a2 90bc ac5a e23b d5ef 313d a103 533c
000001c0: 9583 0d3c 020a 103b 8183 29bb 5537 9cbb
000001d0: 65a6 1d3c a680 01bc b709 1ebc 932c 87bc
000001e0: 9071 be3d 7754 b03d 69a2 cb3d 7fef ac3d
000001f0: a9a1 1c3d 89f4 b33c 4fdb dcbb ed49 b0bc
00000200: e42a 253d bd20 283e 0662 223d d345 8ebc
00000210: 276d dbbc cc46 223d c24b 7bbd ba5b 5e3d
00000220: 5d1f c63d f09b 623d 9aff c0bc 869d b8bd
00000230: 6164 1a3d f059 8cbe 87f4 1f3e fc3b 323c
00000240: 7b09 89bd eda8 93bc 3b68 4c3e f13c 5e3d
00000250: d959 20bc 37cb 18bd d9bc 3b3e 0af2 a93e
00000260: d675 e4ba 437b c93c 66f5 503d 94e5 8c39
00000270: 386f 66bc 51f2 81bd aa30 9c3d c4f5 613d
00000280: 559f 003d 7927 833c 702b adbc 220b 62bd
00000290: b8ad f0ba 72ff ccbd f3b2 8abd 593c 59bd
000002a0: 8011 fabd 761d 91bc b640 213d 61df 1ebd
000002b0: 9ad5 593d fc0b 623c 8e7e 58bc 9203 36bc
000002c0: 3b67 ecbb f8f8 c73b 0ac7 3d3e 4e96 663c
000002d0: a070 c03d e9d7 d83d 1fe4 d53c 3079 783d
000002e0: d1a5 4dbc d2f0 f53d 4b02 4fbc 5787 cfbc
000002f0: bf51 5f3d c6cd 703e 6f1f 88bc 781d aebc
00000300: 70a6 d1bc c100 d63d a799 89bd c73c 2c3d
00000310: 582e 33bd dccb 82bc edaf 673c a351 09bc
00000320: 0661 64bc 0d54 663e 1af5 e83d 6e42 4a3d
00000330: ffb5 aa3d a9dc 24bd 721d 00bd 0657 03bd
00000340: e5a3 07be d43c 853d 2827 0f3e 745c bc3d
00000350: d686 c03c f438 243d fbb9 013d fcdb c9bc
00000360: d7fc 2cbd 37ec c0bd 67e6 b6bc d7dd 93bc
00000370: d8fe 7abc 1b03 b93d 8a67 24bd 526b c4bc
00000380: cbe6 f7bd 24aa 033e b418 1f3c e60d b93d
00000390: 8bee 3fbd 21b1 44bc e9fc d03d 1b27 07bd
000003a0: 7d9b 98bb 36ca 1abd 365d 73bd 2b08 fa3d
000003b0: 185b 073d 4fe3 963c 26c4 ab3d 192f c8bc
000003c0: 4dbb 46bd 3f03 043d 5292 9a3d eb24 bfbd
000003d0: 3dc4 f43c a451 833d 06f2 9b3b f8f1 2f3d
000003e0: 4244 883d 91fb 06bd d8e6 84bb 89ba 533e
000003f0: f000 fa3d a7b1 b93c 1430 4b3d 7e53 76bd

fc3.bias f4 [2]
0.03314176 0.03506416
00000000: a7bf 073d 709f 0f3d
