project3_multiagents_collab-compet/checkpoint_critic.pth (torch_old, 525802 bytes, 5 tensors)

fcs1.weight f4 [400, 24]
00000000: 876c de3b 9e0c 21bc dec1 7abb 85c3 3abc
00000010: 7cb0 18bd d52e d8bc 230c 373b 1346 113c
00000020: 8ba7 923d 4344 ab3d ce87 403c bab7 833c
00000030: 59aa 703b 7eca 153d 14bc cf3c 2480 8c3d
00000040: c342 493d 37a6 f33c 2065 a8bc 3dc6 413d
00000050: 5f45 25bd cbd0 28be 2cb1 d13c af17 e83c
00000060: d8b6 4c3d edf0 bd3d 0d4f 40bc 07a7 d5bc
00000070: 0d10 5e3c cc2d 093e 7973 d33a 9b3a b33c
00000080: 37ab 24bd f846 f83d 4675 03bd 9588 283d
00000090: f747 1cbd 04a2 67bd 2a71 0e3d 1460 d2bb
000000a0: c6b8 253c 93c6 eb3d dde2 253c a142 8b3d
000000b0: 5a99 3dbb 29d8 21be d07b 99bc a843 a33c
000000c0: b1e6 833d 8409 9dbd 642d 23bd d41a a33d
000000d0: bdda 08bd 87ba f4bd 6cf9 a43c 93f5 1a3d
000000e0: 2a4d 5b3d 142a 0dbe 8755 e73c e533 a8bb
000000f0: 1d35 413d 3688 19bd bd9f 48bc 97d7 a9bd
00000100: 3c4b 6bbc 0b20 d8bd b8e7 51bc 6b85 08bd
00000110: 2f95 0d3e d972 1e3e 4b50 eebb 6ec7 a5bd
00000120: c9c7 71bc 61a5 be3d 0a37 583c 67d0 543c
00000130: f622 26bd 77bc ac3d 57cf 973c 4101 20bb
00000140: 8326 7b3d 9677 693d 2e20 07bd e022 febb
00000150: 249f 47bd 1895 823d 0ea9 023d 84c6 6e3c
00000160: 6aea 843d 62f8 89bb 7a62 aa3c e0ab a4bc
00000170: ce43 63bd b978 45be c2aa 10bc ed1d 643d
00000180: 5e52 52bd 7270 063d 9a65 d53c 8c6b 5d3b
00000190: eedb 513d 92b8 43bd 6abb abbc f22e 00bc
000001a0: 54ae 96bc 6bdc b33c dd7d 2bbd c7af 0b3d
000001b0: 290a fe3c 1a88 05bc 5981 023d b443 843c
000001c0: ac47 aa3c 4d1e df3c 14cf 0a3c 3d9a bf3b
000001d0: 9fe7 b7bd 342f 1bbd 9530 8cbc 7c4d 07bc
000001e0: 727f a73c fe06 f23c b9db 97b9 d0fe 14bc
000001f0: ee05 d4bb cbee 18bd dfcf 8bbb 290a 04bc
00000200: e65d 0f3c 4b2e 56bc 59ea 66bc f57c ca3c
00000210: 16a8 4ebd 1c58 f73c b9b8 f43c 9143 10bd
00000220: 903a ff3c 80be 6fbd 247f 873c 1818 c9bc
00000230: f296 7abd 240f 233e 7f26 963c d6c6 523c
00000240: c1f4 843d e37c e53d 9cf0 743c 4a79 7bbd
00000250: 4528 2fbd 5f49 b8bd 14f4 1b3c e0e1 85bd
00000260: 32c0 edbc a9d8 bc3c 7425 383c 9e55 213d
00000270: ff23 9a3c ae75 a0bd 6b9f f0b9 3491 283d
00000280: be3f 02bb 8a96 093e 81b2 c0bb 8675 0ebd
00000290: 9291 423d 8de2 373e 3ec8 dfbb efb6 8c3c
000002a0: 1e89 65bc 1df4 e1bc 6a5f 5c3c 1de4 cb3c
000002b0: 2701 27bd 0160 0abe 083c 2bbb 734e e23c
000002c0: 8831 723d 1fbb b9bd b2cd 0bbd c3fa 703d
000002d0: 148a cabd 19ab 8bbd 01fd 4b3d a524 7a3c
000002e0: cfd0 d73d 8143 dcbd c6f6 183d 0354 d6bc
000002f0: 36cd b2bd 440a 653c e256 efbc acd4 b53c
00000300: c79b 44bd 5d3c 9bbc 4e43 89bb 55ad 823b
00000310: 4659 bc3d 2824 073d 3d05 323a e678 3ebc
00000320: 4e8f 6abd 28fc 103d 33e0 8cbc 6d09 54bc
00000330: aeb1 c73d 03cf 41bd f772 073c d884 7f3d
00000340: efc7 29bd f9d5 453d c6ee 30bd f349 a5bc
00000350: 69ec 57bd 57a2 41be 4950 fc3c 6ad5 f9bb
00000360: a46a 433c 26f5 9fbc d39c 32bd 9988 b23b
00000370: cdd1 01bd 5d10 113d ef5b ed3c d491 0a3d
00000380: 985f 973c 8e65 59bc 1201 79bc 7047 dabc
00000390: 04b3 4f3d ecc2 64bd 49ba 24bd 7f72 b5bd
000003a0: ae22 a73c e36c 953d d392 1fbd b85b 18bc
000003b0: 0c96 b1bd 2ccc f03c e2b9 a83c 903c 31bd
000003c0: b5f1 17bb 755b da3c e115 eb3b e626 8bbc
000003d0: f7d1 49bd dfd2 1fbd e4bd a2bb 41b2 d53c
000003e0: 5c40 603b 58b8 803d af49 7a3c b3fc 3d3c
000003f0: 25ce e2bc 943c 58bd 990d 17bd c2eb b6bb
0.00678784 -0.009829668 -0.0038262527 -0.011399155 -0.037277684 -0.026389519 0.0027930818 0.008866805
0.071608625 0.08362629 0.011751128 0.016078819 0.003672263 0.036570065 0.025358237 0.068603784
0.049135935 0.029742343 -0.020556033 0.047308195 -0.04034936 -0.16485898 0.025597177 0.028331606
0.04997906 0.092744686 -0.011737597 -0.026080621 0.0135536315 0.13396376 0.0016132436 0.021878531
-0.040202346 0.12122911 -0.032094263 0.04114588 -0.03815457 -0.056550995 0.03477589 -0.006420145
0.010114854 0.115124844 0.010124889 0.06799818 -0.0028930516 -0.15805115 -0.018735796 0.019929722
0.06440485 -0.076678306 -0.03983821 0.079641014 -0.03341173 -0.1194964 0.020138465 0.037831854
0.053540386 -0.13785583 0.028239025 -0.0051331394 0.047169793 -0.037483416 -0.012245116 -0.082930736
-0.014361199 -0.10552987 -0.012811594 -0.033330362 0.1382644 0.15473498 -0.0072727553 -0.08094679
-0.014757105 0.09308887 0.013196716 0.01298914 -0.040560685 0.08434384 0.018531485 -0.002441481
0.061316025 0.05699881 -0.032989673 -0.0077556223 -0.048735753 0.063760936 0.031899504 0.014573697
0.064900234 -0.0042105177 0.02079891 -0.020101488 -0.055484585 -0.19284333 -0.008829774 0.055692602
-0.051348083 0.03282208 0.026049424 0.0033786027 0.051235132 -0.04778344 -0.02096339 -0.007823693
-0.018393673 0.02195569 -0.04186808 0.03410318 0.031010704 -0.008150125 0.031861637 0.016145565
0.020786129 0.027236128 0.008472223 0.005847244 -0.08979725 -0.037886813 -0.01711301 -0.00825822
0.020446513 0.02954435 -0.0002896467 -0.009093955 -0.0064704334 -0.037337106 -0.0042667235 -0.008059063
0.0087504145 -0.013072561 -0.014093959 0.024717787 -0.050453268 0.030193381 0.029873239 -0.035220686
0.031155854 -0.058531284 0.016540118 -0.024547622 -0.06117911 0.15923744 0.018328903 0.012864789
0.064919956 0.11205461 0.014949944 -0.061394967 -0.042763013 -0.089983694 0.009518642 -0.06537223
-0.02902231 0.02305253 0.011239398 0.03938829 0.018815992 -0.078349456 -0.00045895143 0.0411541
-0.001987442 0.13436332 -0.0058806543 -0.034780048 0.047502108 0.17957516 -0.0068292907 0.017177073
-0.014009742 -0.027582223 0.013450483 0.024889046 -0.040772583 -0.13513185 -0.002612831 0.027625298
0.059129268 -0.09068894 -0.034131713 0.058832895 -0.098896176 -0.06819744 0.04980183 0.015267526
0.10537874 -0.10755063 0.037344716 -0.026163107 -0.08730547 0.013979498 -0.029216234 0.022196136
-0.048000123 -0.018949682 -0.0041889315 0.003987948 0.09196715 0.032993466 0.00067909417 -0.011625504
-0.057265572 0.035396725 -0.01719675 -0.0129417 0.097506866 -0.047316562 0.008267156 0.06238255
-0.041450437 0.048299763 -0.043196462 -0.020176863 -0.052715693 -0.18909584 0.030800002 -0.007624318
0.011927281 -0.019526076 -0.04360659 0.0054484126 -0.031694222 0.035415996 0.028974501 0.03383048
0.0184782 -0.013268841 -0.015198009 -0.026645392 0.050707832 -0.055849954 -0.040216718 -0.08859729
0.020402279 0.07296159 -0.03895838 -0.009299211 -0.08671197 0.029394232 0.020596448 -0.043270648
-0.002318484 0.026654938 0.007174239 -0.016986322 -0.049272504 -0.03901946 -0.0049664844 0.026085975
0.0034218049 0.06285161 0.015276357 0.011595893 -0.027686188 -0.052792147 -0.036878202 -0.0055823037

fcs1.bias f4 [400]
00000000: 0068 013e 0de9 803d fd90 bebc d1af 1b3e
00000010: 4be8 85bd 4993 90bd ac8d 033c 828b 2bbe
00000020: 71bd 293c f690 7ebe cfec 14bd 6ef5 41be
00000030: aa8f c53b 5dbb 113e 298b 1d3d dce7 40be
00000040: 25d0 a23d 147a 47be f4f0 3fbe f438 983e
00000050: 8b45 85be 4a9d 093e 9cc4 dabd b44a 03be
00000060: 37c7 dcbd 5dca 88be 2287 73bd 393e 1c3d
00000070: 3c87 c2bc 347d f6bd a79b 433e d185 883e
00000080: 22ca 983d 011a 633e 4164 2b3e 22b5 a9bc
00000090: 2638 fb3d 0885 d8bd 584b a23c 91e6 d0bd
000000a0: 106b 95bd 327f 63be 972e a13d 68ab 86bd
000000b0: a303 833d 952e 533e 6a5b fd3d 9e84 493d
000000c0: 6fb2 8a3e c2f3 7dbe 2482 533e ac6e ecbd
000000d0: 8f75 493e 4459 ba3d d54d 15be 1d70 90bd
000000e0: 7ad6 a5bc 809c 223e 7e32 473e d6e7 233e
000000f0: 143c fa3d 16bd 973e 89c9 93be 539f 093e
00000100: a6f7 4d3d 1917 093e 85da e63a 6f6b 6d3d
00000110: b280 c63d c5ee 2ebe de92 62be 9974 97bd
00000120: f031 c73d cedf 593c 0861 31be e850 9c3d
00000130: 0c46 a43d 4eb3 4bbe ab3d 2f3e 2f4f a63d
00000140: e658 2b3e 0f78 f8bd 7753 2bbe 114c 26be
00000150: bb95 013d 016a 4cbe d164 2b3e 97de 8bbe
00000160: 5b96 56be ca22 123e 41d5 b2bd 9e74 b7bc
00000170: d935 dfbd 0e81 e9bd 1597 41bc 74c1 ccbc
00000180: ab08 49be 9786 00bd ce31 0bbd 97fd 48bd
00000190: f01d 893d 7777 9abe 5330 923c 8c85 19bd
000001a0: 0ab4 8a3d ba9b 80bd b4ab b53d 79f4 58be
000001b0: e8b1 f0bd 8ced f23b 37eb c03b a354 89be
000001c0: 6182 743d 64e4 0c3e a383 28be 19e5 85bd
000001d0: e054 43be a2e8 903b c89b 953c 0ac4 2b3e
000001e0: a9b1 563e 613e 293e 32e0 793d f7b1 62be
000001f0: f56e 93bd 975a 353e 57a8 bebc bad8 c83c
00000200: d9a9 423c 808a 193e fa0b 083e 6205 46bd
00000210: 8b52 dc3b 4641 083e 4c9e d73d bddc a13d
00000220: e728 243e 6bf9 753d 2303 b53d bc78 52be
00000230: 5360 16be dcbc 2abe ec7d 4b3d 2218 3fbe
00000240: 0bf5 50be 6d71 583e 6911 76bd 6450 45be
00000250: d38d dabd 5b98 3e3d c8d9 4cbd f795 84be
00000260: 60b1 cf3d 8c47 123e e203 6c3e 5094 6fbe
00000270: c5ce e2bc a707 8dbd df1d 89bd a362 793c
00000280: e1ad 913e a738 a13b 3ad8 183e 918c 023d
00000290: 3467 f9bd 20d7 03bc ea7f d53d 57b1 663d
000002a0: f82f 91bc 5a48 b53b d95a 8bbe ec56 dfbd
000002b0: f184 62bd 509a dd3d 7703 023e f176 553d
000002c0: 32bc 57be 41e5 28bd 45c5 54be 5e1d de3c
000002d0: f0b0 473e 477a 013c a994 40be 3349 97be
000002e0: 9263 9ebd 3794 2bbd 3593 2abe 4ebb 323d
000002f0: 5b14 8ebb 0e0e 6f3c bbd9 db3d 539f 95be
00000300: d976 063d 4402 043e fd5a 293e 68d9 423d
00000310: 5103 0ebe de90 5abe f5ea 683e b2bd 98be
00000320: bb52 39be 413b 2a3e d509 0cbd 4d19 6ebd
00000330: 46f6 14be cf4f 7f3d d2f1 e0bd 72db 903d
00000340: 8b69 4d3e f152 77be d011 0e3e e62c 153a
00000350: 79de 98be 441b f93d 69d0 87be c01f 903d
00000360: edbf 653b 2078 18be e25b 7abe 33e7 a53d
00000370: f3ac 44be d089 f33d 8af3 b73d 417e 6cbe
00000380: 39ed e73d ff5c 36be a5eb 84bd 4cbf e2bd
00000390: 4bad f43d d315 5ebe 8938 10be f292 6abd
000003a0: 0c93 eabd f83f 123d f521 efbd 7367 403d
000003b0: 33b0 dcbd 9d1e fcbd 61a9 2c3d f009 c63d
000003c0: a976 ea3d cfe3 053e 73fc 55bd 7f9e 26be
000003d0: c98d f73d 0766 7abd b55f df3b 1b9f 8f3d
000003e0: 97dd 04be 8fd1 b7be cfe6 51be a0e2 a7be
000003f0: 2e32 a93d 0ccf 143c df36 c5bd 9d73 88bd
0.12637329 0.06294451 -0.023262495 0.15203787 -0.06538447 -0.070593424 0.008029383 -0.16752437
0.010360108 -0.24859986 -0.03635865 -0.1894128 0.006029089 0.1423163 0.03846279 -0.18838447
0.07949857 -0.19480163 -0.1874426 0.29730952 -0.2602962 0.13438907 -0.106820315 -0.12821466
-0.10780185 -0.2671689 -0.059455045 0.038145278 -0.023746125 -0.12035599 0.19102345 0.26664594
0.07460429 0.22177888 0.16737463 -0.020716254 0.12266569 -0.10572249 0.019811317 -0.10200227
-0.07295811 -0.2221649 0.078702144 -0.06575662 0.06397178 0.20623238 0.123709515 0.04919874
0.2708926 -0.24800017 0.20655113 -0.115445465 0.19673751 0.09099057 -0.14580472 -0.07052634
-0.020243872 0.15880013 0.19452855 0.16006407 0.1221849 0.2963645 -0.28864697 0.13439684
0.050285004 0.13387717 0.0017612731 0.057963785 0.096925154 -0.17083271 -0.22126338 -0.07395286
0.09726322 0.013297988 -0.1732217 0.07632619 0.08021173 -0.19892618 0.17113368 0.08120572
0.16733131 -0.12132274 -0.16731058 -0.16239955 0.031636935 -0.19962312 0.16737677 -0.2731826
-0.20955794 0.14271083 -0.08732081 -0.022394475 -0.108989425 -0.11401568 -0.011815806 -0.02499459
-0.19632213 -0.031378355 -0.033983044 -0.049069967 0.06695163 -0.3016927 0.017845308 -0.037480876
0.06772621 -0.062797025 0.088706404 -0.21187009 -0.11752683 0.0074135717 0.005887415 -0.26822385
0.05969465 0.13758999 -0.16456465 -0.065378375 -0.19075346 0.0044222632 0.018262759 0.16774002
0.2096621 0.16527702 0.061004825 -0.221382 -0.07198898 0.17710339 -0.02327363 0.024517406
0.011881315 0.1499424 0.13285819 -0.048344977 0.006723707 0.1330615 0.105282396 0.079034306
0.16031228 0.060052317 0.08838489 -0.20553869 -0.14685182 -0.16673607 0.049680635 -0.1866155
-0.20405976 0.21137019 -0.060075197 -0.19268948 -0.10671582 0.046532016 -0.05001238 -0.25895664
0.101412535 0.14285105 0.23048356 -0.2339642 -0.027686486 -0.06886225 -0.066951506 0.015221271
0.28452972 0.0049200836 0.14926234 0.031872336 -0.121778876 -0.008046895 0.10424788 0.05632147
-0.017723069 0.0055323066 -0.2721775 -0.10905251 -0.055302564 0.108204484 0.12696634 0.052115384
-0.21067885 -0.04123426 -0.20778377 0.027113613 0.1950109 0.007902688 -0.1880671 -0.29548034
-0.07733835 -0.041889396 -0.16657718 0.04363566 -0.0043359227 0.014590753 0.10734888 -0.29223117
0.032828186 0.1289149 0.16538616 0.047570616 -0.13868453 -0.21344325 0.22745879 -0.29832226
-0.18097965 0.16624166 -0.034189064 -0.058129597 -0.14547071 0.06233197 -0.109836236 0.07073106
0.20059793 -0.24152733 0.13873982 0.00056905893 -0.29857233 0.12163404 -0.26526192 0.07037306
0.0035057024 -0.14889574 -0.24449113 0.081007384 -0.192066 0.1189152 0.08981998 -0.23095037
0.113245435 -0.17808913 -0.06490258 -0.11071643 0.119471155 -0.21688013 -0.14084066 -0.057269044
-0.11453828 0.035705537 -0.11676399 0.046973657 -0.10775795 -0.123105265 0.04215372 0.09669864
0.11448414 0.13075183 -0.052242707 -0.16271399 0.1208759 -0.061132457 0.006816829 0.07012769
-0.12975155 -0.35902068 -0.20498203 -0.3279009 0.08261524 0.009082567 -0.096296065 -0.066626765

fc2.weight f4 [300, 402]
00000000: 38df 9fbd 9582 39bd 70ba c6bd 457e 18bc
00000010: 16b0 b0bc 2b77 77bc e48e d83c fa54 85bd
00000020: 805b 50bd 2f01 47bd 674c a23b 7235 e8bc
00000030: 646b 6c3c eb55 6fbc 4f37 5c3d c0f9 c73c
00000040: 4bf3 593c 333f 33bc b47c eebc f51d 42bb
00000050: 1450 693c 932d 983c fb42 b23b 45ba de3c
00000060: c296 85bd b705 8bbc 8946 90bd ee36 94bc
00000070: 99ff d73c c8a1 8e3d b76d 3bbd 66f2 ad3c
00000080: 5dcd 0cbd 9b40 d9bc e6c7 1abc b56d 213d
00000090: d9cb 4dbd 16e4 19bc ef60 023c 667e 89bc
000000a0: ac2e 8e3d 20b6 453d ce0f 4c3d 029b e3bc
000000b0: e1cf 863c 7305 08bc 815b 4e3d fc84 29bd
000000c0: ca2c 18bd 7295 94bc d23e 28bc 1492 39be
000000d0: cb99 fdbc bacf 86bd 27de 823d 3632 353c
000000e0: deff a3be 3985 a53d 0bec 333d 89c0 373b
000000f0: 156a 98bb 66f0 a73a 4581 d6bc 6b76 6d3b
00000100: cbe0 92bc 1bfe 333d 10cf eabc 3f92 36bd
00000110: a889 f83c c542 f63a c477 113d 5773 a9bd
00000120: ef22 b73b c8af b83d 3ebe 34bd 8cd2 b6bc
00000130: a448 acbb 846c 39be ee91 7cbc 1d55 99bd
00000140: c99f a13b 1e96 923d 06c3 843d ccad e43c
00000150: 9953 053d c137 8e3d 7277 6f3d 8992 0cbe
00000160: 1470 893d d9f6 0dbd fe60 e7bc 5dac bfbc
00000170: 25a4 e53c b166 5dbd b3cd 8e3d 7a1e 76bd
00000180: 3ee7 1a3d 4483 5d3d e24e bcbb c77b 103d
00000190: 593f fbbc 238a 29bc e0ee d03c 365b 183d
000001a0: e89a 9dbc 784e 1fbe 4959 09be 3728 2cbd
000001b0: 2cf8 8dbc b619 913c ebdd 7b3c 5bfb 2cbc
000001c0: 5c7d a53d 7edc 31bd c910 44bd 6c92 abbc
000001d0: c1ff a03c d029 2e3d d3f8 86bd 2d1b eb3b
000001e0: a0b7 33bd 395f 8d3b 7ad2 0dbd ff0d a9bd
000001f0: 3647 46bd 094e 0d3d d7a2 45be 6e4e 9d3c
00000200: 6a64 02bc 13bb 7f3c 6710 913d 5ee5 f5ba
00000210: de97 0ebd e518 9ab9 b625 f73b 7efd 31bc
00000220: 0cce 14bc 419e 4fbd b3b4 d3bc b90e 9cbd
00000230: 02ac 663d 633b 2e3d e05c c7bc a6ae 21bb
00000240: 731a e1bc f26c 0cbd a9f1 abbd 339f 04bd
00000250: 30fe be3b 82e9 f5bb cb8b 0cbd e0a2 c03b
00000260: 46a1 a8bc 1400 f7bc b81e 3bbe d313 cfbc
00000270: 9c9a 83bd 3a14 4bbd 0762 d8bc 71d2 a7bc
00000280: 2136 1bbd cbf6 dcbc 7260 403a e4e9 7ebd
00000290: 3c64 863d 0477 febc 4b10 adba 7a37 37bd
000002a0: ea61 013d 7b95 2cbd 10cf 833d 1785 efbd
000002b0: 3161 29bd 1cbb 333d 409b 8a3c b292 bf3c
000002c0: 5abb 19bd 8f29 8abd cd74 ea3c 97a2 f13d
000002d0: 285c 51bd 2e02 4cbc cf54 563d 67da 723d
000002e0: 3b59 4c3d 76b2 0d3b f5cf a3bc dc6f 1f3d
000002f0: d478 0abd aa62 3dbd 366e 75bb 96c7 213d
00000300: aaa8 3e3d 82ae 153b 18d9 163d 6450 bab8
00000310: 822b ccbd d9fc a13b 9d1e 893b 5d78 06bc
00000320: 5c0b bfbd 14f1 183d a10b 043d 920d 253d
00000330: 96e8 403a d132 2ebd 1a44 83bc cbff ebbc
00000340: e441 263d 0d44 86bc 5a0b 103d ae4d c53b
00000350: 9b4b 6b3d 8584 2ebd efe4 513d 732f 2c3d
00000360: a4f4 86bb 53e3 d3bd 3b15 94bb a792 53bd
00000370: 6303 29bd 4a65 4d3d 4cfc 2e3d b326 cfbd
00000380: 0374 503c 8492 913c 4050 5fbb 9268 e23c
00000390: 0b1e 2f3d 4335 ea3b 47bf c1bd d9e7 d63c
000003a0: 19a9 eabb d1b4 fd3b 6653 0bbd 87e8 a33b
000003b0: daa2 ebbc 47af 93bd 2201 3fbd 4963 423c
000003c0: 5556 173d 06ef 3dbd ca88 93bd 261a 7f3d
000003d0: 1ef4 0cbd 19f3 03bd f1b0 0a3d c7d9 6e3d
000003e0: 065c f2bc 2c0b 66bd 91c5 8dbc 03cf 003c
000003f0: 5355 023d 9b29 e3bd f33d 60bc 5701 e2bb
-0.078062475 -0.04529055 -0.09703529 -0.009307449 -0.02156834 -0.015104095 0.026435323 -0.065103486
-0.05086851 -0.048585113 0.0049529555 -0.028345797 0.014429901 -0.014607887 0.053763684 0.024411082
0.0133026345 -0.010940361 -0.029112197 -0.0029619907 0.0142402835 0.018576419 0.0054401136 0.02718843
-0.065228954 -0.016970498 -0.070447035 -0.018092599 0.026366996 0.06964451 -0.04575893 0.021233749
-0.034375537 -0.026520064 -0.009447074 0.039411265 -0.050243232 -0.009392759 0.007957681 -0.016783904
0.06942496 0.04826939 0.04981976 -0.027783874 0.016456546 -0.00830208 0.050380234 -0.04138659
-0.03715209 -0.018137667 -0.010268884 -0.1812213 -0.030957123 -0.065825894 0.063900284 0.0110593345
-0.3203115 0.08082051 0.04392628 0.0028038344 -0.004651318 0.0012812733 -0.026184687 0.0036233913
-0.017929455 0.043943506 -0.028663188 -0.044573065 0.030339077 0.0018788209 0.035514608 -0.082739525
0.005588881 0.090179026 -0.04412674 -0.022317193 -0.005257683 -0.18107802 -0.015415652 -0.07486937
0.004932378 0.07157539 0.0648251 0.027914904 0.032550428 0.06944228 0.05846352 -0.13727774
0.0671083 -0.03465924 -0.028244492 -0.023397619 0.028032372 -0.054053012 0.06972828 -0.06008766
0.037818186 0.054080263 -0.0057467083 0.035274293 -0.030669855 -0.010347876 0.02550453 0.03719636
-0.019238904 -0.15557277 -0.13412966 -0.04203054 -0.017330252 0.017712455 0.015372734 -0.010557975
0.08080551 -0.04342317 -0.04786757 -0.020943843 0.019653203 0.042520344 -0.06590428 0.0071748705
-0.04387629 0.00431433 -0.034624554 -0.08254623 -0.048407756 0.03449825 -0.193004 0.019202437
-0.007958511 0.015608567 0.070832066 -0.0018760373 -0.0348128 -0.00029391717 0.0075423373 -0.01086366
-0.0090823285 -0.050688032 -0.025843 -0.076199956 0.056316383 0.042537104 -0.024336278 -0.002467075
-0.027478432 -0.034283586 -0.083957024 -0.032378387 0.0058286414 -0.007504643 -0.034313004 0.005878791
-0.020584714 -0.030151404 -0.18273437 -0.025278008 -0.06425974 -0.049579836 -0.02641393 -0.020486088
-0.03789342 -0.026973149 0.000733859 -0.062234774 0.06562087 -0.03106261 -0.0013203708 -0.04473064
0.03158752 -0.042134743 0.064359784 -0.11695307 -0.041352455 0.043879613 0.016919732 0.02338538
-0.037532188 -0.06746208 0.028620148 0.1179859 -0.051113278 -0.012451692 0.052326974 0.059290316
0.049889784 0.0021621264 -0.019996623 0.038925037 -0.033806637 -0.04623667 -0.0037449724 0.03949698
0.04654757 0.002283961 0.03682813 -8.884145e-05 -0.09969236 0.004943472 0.0041845576 -0.008207408
-0.093283385 0.037339285 0.032237653 0.040296145 0.0007358877 -0.04252893 -0.016023684 -0.028808495
0.040590182 -0.016389871 0.035167076 0.006021223 0.05744515 -0.04260685 0.05124372 0.04203744
-0.004118519 -0.10346093 -0.0045191324 -0.05165353 -0.041262995 0.050145425 0.042721078 -0.10114803
0.012722972 0.01777006 -0.0034074932 0.027637754 0.04275326 0.0071474626 -0.094603114 0.0262336
-0.0071612713 0.0077425023 -0.03401508 0.0050020847 -0.028764177 -0.07211166 -0.04663194 0.011864492
0.036947567 -0.04637053 -0.07203825 0.062280796 -0.034412496 -0.032214258 0.03386015 0.058313157
-0.029584896 -0.056162998 -0.017306121 0.007861855 0.031819653 -0.1109192 -0.013686645 -0.0068971324

fc2.bias f4 [300]
00000000: 4215 31bc d091 c53b 93a4 a6bd 5b37 68bd
00000010: 7c3e 76bd f91b a03c 54e2 0ebd fa73 9c3d
00000020: 7ac4 683d e47c 183d 34f9 2ebd 40b3 f4bb
00000030: 9798 99bb 01cb e93d 8bd9 67bd 205d aebc
00000040: a472 61bd 810a 753d 1409 f63b ec6d 553c
00000050: b3c2 03bc 96bf 58bb e0e9 81bc f7b1 44bc
00000060: 29b8 313b cfd8 2bbe 287e c23d 2562 cebd
00000070: 2379 2ebe d5a7 1e3b 9391 fb3b c785 0e3d
00000080: 00de 12bd c84e 85bd 162c 383c 12b6 d33d
00000090: bc6f 463d 73df 0ebd ee79 353b 53df 77bd
000000a0: 49b2 843d 57b4 ac3d d69d 293d ae18 e83c
000000b0: d73f 153d e1c5 e6bb 9769 aa3c 0722 33bc
000000c0: 67f9 503b 3ccd 873d 61c1 33bc 91e5 c5bd
000000d0: d167 ba3d 0109 813d 5ee6 8fbc 4b42 54bd
000000e0: e3d6 33bd 90dd 9c3b d987 8c3d 49f0 8dbc
000000f0: e0d5 a3bc f8ed 133d 0442 d1bb 2473 90bc
00000100: c9ac 223c eb7b 17bd 8790 043e 46fa c33d
00000110: 96f8 bd3d 7e3c 273b e3e2 8a3d 3454 52ba
00000120: 46f3 40bc 7888 443c 272e cdbc 224c db3d
00000130: f133 9bbc 4a2b 84bd af6f 51bd ea7b 27bd
00000140: c235 cdbc 9367 42bc 0980 563d 56aa 7cbd
00000150: fae1 20be 9053 953b 2633 e53c 873b c93d
00000160: 9d8d 1bbc e3d0 cdbb 854c 9bbd a293 5b3c
00000170: 4fc4 723d e588 de3b d5a1 2b3d c870 783d
00000180: d862 c6bb cc7e 89bc 760d 643d e853 6cbd
00000190: 50f5 ecbd 65fc 44bd 5cb5 773d 0e8c 6f3c
000001a0: ddd9 443d d31d eb3d a399 dcbc f866 053d
000001b0: cc30 49bc 54e9 b93d 90e5 1a3e 2f38 fc3d
000001c0: 104b 903c f424 c53c c7da 283d 0e82 59bc
000001d0: 8ac8 3fbd e0cc de3d 289c 3abd 44ef ecbc
000001e0: 3433 c63c f170 c43c 4e1d 383d e076 3abd
000001f0: 17a3 95bd 3951 173d dc46 803c a52e 6d3c
00000200: 2c48 893d 69cc 623d 8cb1 9a3d 347c 9d3b
00000210: ceb5 e43d 446d 30be b354 0d3d 11bb ba3d
00000220: 6a97 4a3b 4564 a23d 5e48 5dbc a139 68bd
00000230: 806e 593c 3c74 d83d 861f 2abd b356 21bb
00000240: 0bba 34bd d043 71bd 4b71 a5ba a74f 1dbd
00000250: 80e1 77bc e133 723c ca39 f4bc b943 5d3d
00000260: e41f d13d 54a8 c23d 6bd0 a93d a0b2 2a3d
00000270: f994 e23c 1a5f 843c 4091 a53d 2679 c7bc
00000280: 0f5b a3bd 5d8c 143d 847d 95bd c447 133d
00000290: afe4 95bd b847 b5bc 0d68 283d 890d 803d
000002a0: 03fb 2b3c aeb3 c6bc 67fc 2dbd 2908 22bd
000002b0: e0e7 92bc d676 983c 3dae 2fbc bcdd 213d
000002c0: c8ca 3ebb 4f64 fe3c df05 8e3d 326b ce3d
000002d0: b8d3 4ebc 3b47 483d 8fda 17be 3086 c23b
000002e0: f516 80bd 3501 9f3c 44a0 f3bc ca81 043b
000002f0: d167 13be 4be7 143d 6839 babc a62c 86bc
00000300: 1662 14bd 9921 c13d 3f64 ba3c 4a90 82ba
00000310: 4353 8abd f486 333d c320 28bd 0d21 913c
00000320: 743d 0bbd 34c2 d9bc 95a3 a5ba 7202 90bc
00000330: 5b5d 65bd 8699 99bd 688e acbd c095 203d
00000340: e0aa 783d 7ce0 47bd 0cf9 45bc a5f0 44bd
00000350: ebff b2bc f64b 14bd 5d9d 41bd 890a 033e
00000360: 23ae acbd 5734 233c b579 0fbd 50f1 013d
00000370: c945 a23d ac59 833d 084e 97bd 7c1d 9e3d
00000380: 39e5 e33d e134 993d 21f4 b13c 3266 72bc
00000390: 132c 123e a24f 99bd 3a82 f0bc 7b82 a13d
000003a0: ae15 9a3c 4449 463d 6457 9c3d 730a e23c
000003b0: 1eb1 c03d e989 dc3c 51c6 47bd ac40 313e
000003c0: b5a5 84bd 30c6 5dbd e7cb dc3d 43ef 393d
000003d0: b29d 4ebc 7ae7 e2bd 3c76 40bc ea01 70bc
000003e0: e026 94bc 0f26 31be 1ad6 7abd d2eb 7fbb
000003f0: c8dd 1e3d f84b cc3d 7655 60be 2125 0e3e
-0.010808291 0.006029345 -0.08136859 -0.056693416 -0.060118183 0.019544588 -0.034883812 0.07639308
0.056828 0.03722848 -0.042718127 -0.0074676573 -0.0046873796 0.11415673 -0.05660395 -0.02128464
-0.05504097 0.05982447 0.0075084064 0.013026696 -0.008042025 -0.0033073178 -0.01585859 -0.012005321
0.0027117825 -0.16781925 0.09496719 -0.10077313 -0.17038397 0.0024208922 0.007677266 0.03479555
-0.035856247 -0.06509167 0.01124098 0.103374615 0.048446402 -0.034881067 0.0027691084 -0.060515713
0.06479318 0.084328346 0.04141029 0.02833208 0.036437836 -0.007042632 0.020802302 -0.010933406
0.0031886937 0.06630942 -0.010971398 -0.09662927 0.09101833 0.063005455 -0.017565902 -0.051821034
-0.043906104 0.0047871545 0.068618484 -0.017326491 -0.019999444 0.036115617 -0.0063860435 -0.017633028
0.0099288905 -0.03698341 0.12945758 0.0956922 0.0927593 0.0025518234 0.067815565 -0.00080234115
-0.011776751 0.011995427 -0.025046421 0.107078806 -0.018945666 -0.06453569 -0.0511319 -0.040889658
-0.025050048 -0.011865514 0.052368198 -0.061685883 -0.15711203 0.0045570806 0.027978491 0.09825807
-0.009494212 -0.0062810048 -0.07582954 0.013401898 0.059269246 0.0067912214 0.041902382 0.06065443
-0.0060542636 -0.016784094 0.0556769 -0.057697207 -0.11570227 -0.048092265 0.060475692 0.014620794
0.048059333 0.11480298 -0.026928728 0.0325689 -0.0122797005 0.09077707 0.15126634 0.12315404
0.017613918 0.024065472 0.041224267 -0.013275636 -0.04682211 0.108789206 -0.04555908 -0.028922684
0.024194337 0.023979636 0.044949822 -0.045523524 -0.073064975 0.036942694 0.015658788 0.014476453
0.06703219 0.055370722 0.07553396 0.004806066 0.11167489 -0.17229182 0.034504604 0.09117711
0.0030913004 0.07929281 -0.013506023 -0.056695584 0.013270974 0.10569045 -0.04153397 -0.0024618327
-0.044122737 -0.05890256 -0.0012622265 -0.03840604 -0.015129447 0.014782877 -0.029812712 0.054019663
0.10211161 0.09504762 0.08291706 0.041674256 0.027658926 0.01615863 0.08084345 -0.02434976
-0.079763524 0.036266673 -0.07299331 0.035957113 -0.073190086 -0.022128925 0.041114856 0.062525816
0.010496858 -0.0242556 -0.042477038 -0.039558563 -0.017932832 0.018611353 -0.010722694 0.039518103
-0.0029112566 0.03105369 0.069347136 0.1007904 -0.01262372 0.048896056 -0.14829467 0.0059364066
-0.06254379 0.019409755 -0.029739507 0.0020218962 -0.14395072 0.03635339 -0.022732452 -0.016378712
-0.036226355 0.09430236 0.02275288 -0.0009961214 -0.06754162 0.043829873 -0.04104687 0.017715955
-0.033994153 -0.026581861 -0.0012637252 -0.017579291 -0.055997234 -0.074999854 -0.08425599 0.039205313
0.060709834 -0.04879807 -0.012083303 -0.04808106 -0.021850547 -0.036205254 -0.047269214 0.12796988
-0.084316514 0.009961209 -0.03502818 0.031724274 0.07923467 0.06413588 -0.0738793 0.077204674
0.11127705 0.07480789 0.021722855 -0.014794873 0.14274625 -0.07485892 -0.029358972 0.07886215
0.018809166 0.048409715 0.07633856 0.027592873 0.094087824 0.02692123 -0.048773114 0.17309827
-0.064769186 -0.054144084 0.10781079 0.045394193 -0.01261084 -0.11079307 -0.011746939 -0.014648894
-0.018084943 -0.17299674 -0.06123934 -0.0039050472 0.038785726 0.099754274 -0.21907601 0.13881351

fc3.weight f4 [1, 300]
00000000: 0dde 0f3d 7370 633d 1648 14bc 958d 46bb
00000010: 9fca 8fbd 9a79 b83c 8d71 40bd 79ad be3c
00000020: 575d 203c 1813 a23c b2e9 8cbd 9b79 3c3c
00000030: 265f 50bd 0263 293d 5691 c53d 37da 253c
00000040: eeb9 a4bd a0b1 c73d d3cb 2f3d 7525 adbc
00000050: 0268 fb3c 1ceb 01bd 90b5 b4bc d748 a13d
00000060: 400e e43d 1ae5 fabc c16a 623c 1991 8dbc
00000070: b91c 8abc 97f8 85bd 7cbe 30bd f529 883c
00000080: 7d58 18bd c6c3 25be c1a8 67bd 77f9 853c
00000090: 0217 933c ab9a 2cbd 7b8f 92bc 568b e4bd
000000a0: 2eae d3bd 58a0 9a3c b4eb 293e 0252 613c
000000b0: 2c40 7a3c 4f92 cebc 049a 663d 82ff 32bd
000000c0: 9794 bd3c 047b ac3d 0805 963d b46b 03bd
000000d0: 64f9 2f3c 5cc1 bf3c 441d bfbd 952b 9cbc
000000e0: d6d4 9abc f096 aa3c e211 7e3c 6979 76bd
000000f0: 5eb2 7dbc 2310 62bd 46a2 1e3d 3bb8 51bd
00000100: a1f4 053d b8be 3abc efee 043c 6b80 cc3c
00000110: 969e 7f3b cf1c a93c a54e b93d c926 22bd
00000120: 4f9c 94be 339f cf3c 28f3 593c a0b0 a83c
00000130: 6d7e d53d b560 5ebc 112f 4bbc 0625 1f3d
00000140: 8a29 f2bc 16ed 8fbd af36 103d d198 bebd
00000150: 3909 abbc 628e 86bd 626e 8f3d ee3b a13c
00000160: e78c c4bd 6938 91bc 1733 54bc 3ba6 873c
00000170: 0f64 8e3c c518 273d 3af7 583c 747a ec3c
00000180: b6c3 873c 0651 cbbd 30cc 233d 3c2f bbbc
00000190: e036 08bc 3a09 e23d 7177 85bd a5e0 e23c
000001a0: fe7e 913c 4da2 893c 319f 15bd a950 b538
000001b0: 975a 69bd b172 653c 17ea f43b 313b 493c
000001c0: f8d6 8cbd 423d d2bc 224c 183d 9c16 b23d
000001d0: b5d7 f6bc a36a 173c 578f eabc e8c2 953d
000001e0: 117c 8b3c b4f8 053d 0084 1fbd 3483 48bd
000001f0: cef2 0fbd f779 dc3c 88e5 74bd b07c f2b9
00000200: 72ee 9a3d eb63 a3bd 17b6 d3bd cbd4 c7bc
00000210: a401 393c 14df 0bbd 352d 323d 92b6 f83a
00000220: 049b e13d 7d16 f23d 2d76 03be 76e2 24bd
00000230: 4f83 ea3c c030 4c3c 1522 8ebc 47a7 20bd
00000240: bd33 333d 604f 98bb d96f d1bd 21ed 18bd
00000250: 4746 d5bd a9bb 35bd 9d4a 92bd 446d 20be
00000260: 8bd8 aa3c 2f0b d13c 1491 7e3b 0899 55bd
00000270: 12d6 0c3d 8f50 ebbc f9d3 b83c 1dd1 d1bc
00000280: f0b3 b33c 3638 ccbd 741c 39be 51c4 e5bc
00000290: 1546 093d 8e80 103d e337 2f3d 899f 593c
000002a0: 5af2 3a3c 56b6 80bd 5042 15bd 9533 53bd
000002b0: 17fe 88bc 47c7 153e 50c9 01be 2842 433e
000002c0: 21ed adbd f435 593d 09e1 adbd 7b1d 0e3c
000002d0: bb9d efbd eda6 c13c 5576 12bd 943e 8abd
000002e0: 9d88 31bd 7a13 14bd 7e75 7c3d df4d 5ebc
000002f0: 39f9 dbbc d0e7 04bd 4fcd babc 3824 d93a
00000300: 3196 753b d82f 733c 93f1 4c3d 614c 64bd
00000310: ea9f a9bd dba0 573d 4460 43bd 87a0 6b3c
00000320: 7920 00bd 67e1 07bd cb88 253d 33e6 eebd
00000330: 0a56 f5bc ad9a 49bd ba2d 5fbd f1b6 f33c
00000340: 47a4 dd3c 1e51 96bc 8ed9 d0bc a261 3dbd
00000350: afd5 363d ea43 ebbc f9e5 b5bc 640f e43b
00000360: e494 8abc cb9c 4abc a010 143d 9005 73bd
00000370: 94ab 263d a9c4 5f3e 9344 1cbd 97c6 e33c
00000380: 37ae 213c 6a0d da3c 2df9 083d a144 2dbd
00000390: b10d 4c3c 8e7d 42bc 1332 d53d a5cc 9d3c
000003a0: 5133 ea3b b583 053c 1956 933c 4256 3f3c
000003b0: 1cea b43c fb8f 813d 95ed 10bd f2ad 813c
000003c0: 4928 4ebc 8eed 88bd 2cd3 6f3c cedd 1dbd
000003d0: a4cd cd3c 2ab4 18bd 65af ea3c a3cd d33d
000003e0: 774e 9a3d d420 e8bd a4bf 853b d766 9d3b
000003f0: 6f5c b0bd 13b6 493c 5f51 3bbe d0ec 433c
0.035123874 0.05552716 -0.00905039 -0.0030296792 -0.07021069 0.022518922 -0.04698329 0.023276078
0.009787879 0.019784495 -0.06880511 0.011503602 -0.05087199 0.041354187 0.09646861 0.010122827
-0.08043276 0.09750676 0.04291899 -0.021136025 0.030689243 -0.03171836 -0.022059232 0.07875221
0.111355305 -0.030626822 0.013819397 -0.017281102 -0.0168594 -0.065415554 -0.04315041 0.01662157
-0.037193764 -0.16187963 -0.05655742 0.016354306 0.017955307 -0.04213969 -0.017890682 -0.11159389
-0.103359565 0.018875286 0.1659382 0.013752462 0.015274089 -0.02521625 0.056299224 -0.043700702
0.023142142 0.08421901 0.073251784 -0.032085136 0.010740612 0.02340763 -0.09331754 -0.01906375
-0.018900316 0.020823926 0.015507193 -0.06017438 -0.015484421 -0.05519117 0.038728975 -0.051201086
0.032704 -0.01139801 0.008113607 0.024963578 0.0039004437 0.02064362 0.090482034 -0.03958777
-0.29025504 0.025344467 0.013302602 0.020592034 0.104245044 -0.013572861 -0.012401358 0.038853668
-0.029560823 -0.070276424 0.0352084 -0.09306491 -0.020878421 -0.06570126 0.07003476 0.019681897
-0.095971875 -0.017727094 -0.012951634 0.016558757 0.017381696 0.040795106 0.013242537 0.028866984
0.016572814 -0.09927563 0.03998965 -0.022849672 -0.0083138645 0.11036916 -0.06516922 0.02769501
0.01776075 0.016801024 -0.03652877 8.645777e-05 -0.05697116 0.014004395 0.0074741947 0.012282179
-0.068769395 -0.025663976 0.03718198 0.08695719 -0.030132154 0.009241733 -0.028632803 0.07312566
0.017026933 0.032707885 -0.038944244 -0.04895325 -0.035143666 0.026913626 -0.05978921 -0.00046250736
0.07565011 -0.07978042 -0.10337465 -0.02439346 0.011291895 -0.03414829 0.043500144 0.0018975309
0.11015895 0.118206955 -0.12838049 -0.040255032 0.028627066 0.012462795 -0.017350236 -0.039222028
0.043750513 -0.004648134 -0.10226411 -0.03733552 -0.10413795 -0.04436842 -0.071431376 -0.15666682
0.020855209 0.025518028 0.0038843798 -0.052147895 0.03438384 -0.028724937 0.022562014 -0.025612408
0.021936387 -0.09971659 -0.1807726 -0.028047713 0.0335141 0.03527885 0.042777907 0.013282665
0.01141032 -0.06284778 -0.036440194 -0.051562864 -0.016722722 0.146268 -0.12674451 0.19068205
-0.084924944 0.05302997 -0.08490188 0.008674021 -0.117000066 0.023639167 -0.03575738 -0.06750217
-0.043343175 -0.036151387 0.061635487 -0.013568371 -0.026852237 -0.032447636 -0.022802977 0.001656658
0.0037473554 0.01484295 0.05003507 -0.055736903 -0.08282454 0.052643638 -0.047699228 0.014381534
-0.03128097 -0.033173945 0.04041366 -0.11665001 -0.029948253 -0.049219776 -0.054486968 0.02975032
0.027055873 -0.018349227 -0.025494363 -0.046235688 0.04463738 -0.028718907 -0.022204386 0.0069598425
-0.0169167 -0.012366484 0.036148667 -0.059331477 0.040690973 0.21852364 -0.038151335 0.027804656
0.009868196 0.026617724 0.033440758 -0.042301778 0.012454436 -0.011870755 0.104099415 0.019262621
0.0071472307 0.008149077 0.01798539 0.01167828 0.022084288 0.0632629 -0.035382826 0.015830014
-0.012582847 -0.06685935 0.01463775 -0.038541608 0.025122471 -0.037281193 0.028648088 0.103419565
0.07534497 -0.113343865 0.0040816832 0.004803519 -0.0861138 0.012311476 -0.1829276 0.011958316
